<?xml version="1.0" ?>
<net name="human-pose-estimation-0007" version="10">
	<layers>
		<layer id="0" name="image" type="Parameter" version="opset1">
			<data element_type="f32" shape="1, 3, 448, 448"/>
			<output>
				<port id="0" names="image" precision="FP32">
					<dim>1</dim>
					<dim>3</dim>
					<dim>448</dim>
					<dim>448</dim>
				</port>
			</output>
		</layer>
		<layer id="1" name="data_mul_44976" type="Const" version="opset1">
			<data element_type="f32" offset="0" shape="1, 3, 1, 1" size="12"/>
			<output>
				<port id="0" precision="FP32">
					<dim>1</dim>
					<dim>3</dim>
					<dim>1</dim>
					<dim>1</dim>
				</port>
			</output>
		</layer>
		<layer id="2" name="image/scale/Fused_Mul_" type="Multiply" version="opset1">
			<data auto_broadcast="numpy"/>
			<input>
				<port id="0" precision="FP32">
					<dim>1</dim>
					<dim>3</dim>
					<dim>448</dim>
					<dim>448</dim>
				</port>
				<port id="1" precision="FP32">
					<dim>1</dim>
					<dim>3</dim>
					<dim>1</dim>
					<dim>1</dim>
				</port>
			</input>
			<output>
				<port id="2" precision="FP32">
					<dim>1</dim>
					<dim>3</dim>
					<dim>448</dim>
					<dim>448</dim>
				</port>
			</output>
		</layer>
		<layer id="3" name="data_add_44978" type="Const" version="opset1">
			<data element_type="f32" offset="12" shape="1, 3, 1, 1" size="12"/>
			<output>
				<port id="0" precision="FP32">
					<dim>1</dim>
					<dim>3</dim>
					<dim>1</dim>
					<dim>1</dim>
				</port>
			</output>
		</layer>
		<layer id="4" name="image/mean/Fused_Add_" type="Add" version="opset1">
			<data auto_broadcast="numpy"/>
			<input>
				<port id="0" precision="FP32">
					<dim>1</dim>
					<dim>3</dim>
					<dim>448</dim>
					<dim>448</dim>
				</port>
				<port id="1" precision="FP32">
					<dim>1</dim>
					<dim>3</dim>
					<dim>1</dim>
					<dim>1</dim>
				</port>
			</input>
			<output>
				<port id="2" precision="FP32">
					<dim>1</dim>
					<dim>3</dim>
					<dim>448</dim>
					<dim>448</dim>
				</port>
			</output>
		</layer>
		<layer id="5" name="BatchNormalization_1/mean/Fused_Mul__copy" type="Const" version="opset1">
			<data element_type="f32" offset="24" shape="24, 3, 3, 3" size="2592"/>
			<output>
				<port id="0" names="backbone.module.features.init_block.conv.conv.weight" precision="FP32">
					<dim>24</dim>
					<dim>3</dim>
					<dim>3</dim>
					<dim>3</dim>
				</port>
			</output>
		</layer>
		<layer id="6" name="Conv_0" type="Convolution" version="opset1">
			<data auto_pad="explicit" dilations="1, 1" pads_begin="1, 1" pads_end="1, 1" strides="2, 2"/>
			<input>
				<port id="0" precision="FP32">
					<dim>1</dim>
					<dim>3</dim>
					<dim>448</dim>
					<dim>448</dim>
				</port>
				<port id="1" precision="FP32">
					<dim>24</dim>
					<dim>3</dim>
					<dim>3</dim>
					<dim>3</dim>
				</port>
			</input>
			<output>
				<port id="2" precision="FP32">
					<dim>1</dim>
					<dim>24</dim>
					<dim>224</dim>
					<dim>224</dim>
				</port>
			</output>
		</layer>
		<layer id="7" name="data_add_4498144986" type="Const" version="opset1">
			<data element_type="f32" offset="2616" shape="1, 24, 1, 1" size="96"/>
			<output>
				<port id="0" precision="FP32">
					<dim>1</dim>
					<dim>24</dim>
					<dim>1</dim>
					<dim>1</dim>
				</port>
			</output>
		</layer>
		<layer id="8" name="BatchNormalization_1/variance/Fused_Add_" type="Add" version="opset1">
			<data auto_broadcast="numpy"/>
			<input>
				<port id="0" precision="FP32">
					<dim>1</dim>
					<dim>24</dim>
					<dim>224</dim>
					<dim>224</dim>
				</port>
				<port id="1" precision="FP32">
					<dim>1</dim>
					<dim>24</dim>
					<dim>1</dim>
					<dim>1</dim>
				</port>
			</input>
			<output>
				<port id="2" names="1250" precision="FP32">
					<dim>1</dim>
					<dim>24</dim>
					<dim>224</dim>
					<dim>224</dim>
				</port>
			</output>
		</layer>
		<layer id="9" name="Mul_3" type="Swish" version="opset4">
			<input>
				<port id="0" precision="FP32">
					<dim>1</dim>
					<dim>24</dim>
					<dim>224</dim>
					<dim>224</dim>
				</port>
			</input>
			<output>
				<port id="1" names="1252" precision="FP32">
					<dim>1</dim>
					<dim>24</dim>
					<dim>224</dim>
					<dim>224</dim>
				</port>
			</output>
		</layer>
		<layer id="10" name="BatchNormalization_5/mean/Fused_Mul__copy" type="Const" version="opset1">
			<data element_type="f32" offset="2712" shape="24, 1, 1, 3, 3" size="864"/>
			<output>
				<port id="0" names="backbone.module.features.stage1.unit1.dw_conv.conv.weight" precision="FP32">
					<dim>24</dim>
					<dim>1</dim>
					<dim>1</dim>
					<dim>3</dim>
					<dim>3</dim>
				</port>
			</output>
		</layer>
		<layer id="11" name="Conv_4" type="GroupConvolution" version="opset1">
			<data auto_pad="explicit" dilations="1, 1" pads_begin="1, 1" pads_end="1, 1" strides="1, 1"/>
			<input>
				<port id="0" precision="FP32">
					<dim>1</dim>
					<dim>24</dim>
					<dim>224</dim>
					<dim>224</dim>
				</port>
				<port id="1" precision="FP32">
					<dim>24</dim>
					<dim>1</dim>
					<dim>1</dim>
					<dim>3</dim>
					<dim>3</dim>
				</port>
			</input>
			<output>
				<port id="2" precision="FP32">
					<dim>1</dim>
					<dim>24</dim>
					<dim>224</dim>
					<dim>224</dim>
				</port>
			</output>
		</layer>
		<layer id="12" name="data_add_4498944994" type="Const" version="opset1">
			<data element_type="f32" offset="3576" shape="1, 24, 1, 1" size="96"/>
			<output>
				<port id="0" precision="FP32">
					<dim>1</dim>
					<dim>24</dim>
					<dim>1</dim>
					<dim>1</dim>
				</port>
			</output>
		</layer>
		<layer id="13" name="BatchNormalization_5/variance/Fused_Add_" type="Add" version="opset1">
			<data auto_broadcast="numpy"/>
			<input>
				<port id="0" precision="FP32">
					<dim>1</dim>
					<dim>24</dim>
					<dim>224</dim>
					<dim>224</dim>
				</port>
				<port id="1" precision="FP32">
					<dim>1</dim>
					<dim>24</dim>
					<dim>1</dim>
					<dim>1</dim>
				</port>
			</input>
			<output>
				<port id="2" names="1254" precision="FP32">
					<dim>1</dim>
					<dim>24</dim>
					<dim>224</dim>
					<dim>224</dim>
				</port>
			</output>
		</layer>
		<layer id="14" name="Mul_7" type="Swish" version="opset4">
			<input>
				<port id="0" precision="FP32">
					<dim>1</dim>
					<dim>24</dim>
					<dim>224</dim>
					<dim>224</dim>
				</port>
			</input>
			<output>
				<port id="1" names="1256" precision="FP32">
					<dim>1</dim>
					<dim>24</dim>
					<dim>224</dim>
					<dim>224</dim>
				</port>
			</output>
		</layer>
		<layer id="15" name="2567" type="Const" version="opset1">
			<data element_type="i64" offset="3672" shape="" size="8"/>
			<output>
				<port id="0" precision="I64"/>
			</output>
		</layer>
		<layer id="16" name="GlobalAveragePool_8/input_rank/shape_of" type="ShapeOf" version="opset3">
			<data output_type="i64"/>
			<input>
				<port id="0" precision="FP32">
					<dim>1</dim>
					<dim>24</dim>
					<dim>224</dim>
					<dim>224</dim>
				</port>
			</input>
			<output>
				<port id="1" precision="I64">
					<dim>4</dim>
				</port>
			</output>
		</layer>
		<layer id="17" name="GlobalAveragePool_8/input_rank/rank_of" type="ShapeOf" version="opset3">
			<data output_type="i64"/>
			<input>
				<port id="0" precision="I64">
					<dim>4</dim>
				</port>
			</input>
			<output>
				<port id="1" precision="I64">
					<dim>1</dim>
				</port>
			</output>
		</layer>
		<layer id="18" name="GlobalAveragePool_8/input_rank/0d_rank_of/value" type="Const" version="opset1">
			<data element_type="i64" offset="3680" shape="1" size="8"/>
			<output>
				<port id="0" precision="I64">
					<dim>1</dim>
				</port>
			</output>
		</layer>
		<layer id="19" name="GlobalAveragePool_8/input_rank" type="Squeeze" version="opset1">
			<input>
				<port id="0" precision="I64">
					<dim>1</dim>
				</port>
				<port id="1" precision="I64">
					<dim>1</dim>
				</port>
			</input>
			<output>
				<port id="2" precision="I64"/>
			</output>
		</layer>
		<layer id="20" name="2569" type="Const" version="opset1">
			<data element_type="i64" offset="3688" shape="" size="8"/>
			<output>
				<port id="0" precision="I64"/>
			</output>
		</layer>
		<layer id="21" name="GlobalAveragePool_8/global_pooling_reduce_axis" type="Range" version="opset4">
			<data output_type="i64"/>
			<input>
				<port id="0" precision="I64"/>
				<port id="1" precision="I64"/>
				<port id="2" precision="I64"/>
			</input>
			<output>
				<port id="3" precision="I64">
					<dim>2</dim>
				</port>
			</output>
		</layer>
		<layer id="22" name="GlobalAveragePool_8/reduce" type="ReduceMean" version="opset1">
			<data keep_dims="true"/>
			<input>
				<port id="0" precision="FP32">
					<dim>1</dim>
					<dim>24</dim>
					<dim>224</dim>
					<dim>224</dim>
				</port>
				<port id="1" precision="I64">
					<dim>2</dim>
				</port>
			</input>
			<output>
				<port id="2" names="1257" precision="FP32">
					<dim>1</dim>
					<dim>24</dim>
					<dim>1</dim>
					<dim>1</dim>
				</port>
			</output>
		</layer>
		<layer id="23" name="backbone.module.features.stage1.unit1.se.conv1.weight" type="Const" version="opset1">
			<data element_type="f32" offset="3696" shape="6, 24, 1, 1" size="576"/>
			<output>
				<port id="0" names="backbone.module.features.stage1.unit1.se.conv1.weight" precision="FP32">
					<dim>6</dim>
					<dim>24</dim>
					<dim>1</dim>
					<dim>1</dim>
				</port>
			</output>
		</layer>
		<layer id="24" name="Conv_9/WithoutBiases" type="Convolution" version="opset1">
			<data auto_pad="explicit" dilations="1, 1" pads_begin="0, 0" pads_end="0, 0" strides="1, 1"/>
			<input>
				<port id="0" precision="FP32">
					<dim>1</dim>
					<dim>24</dim>
					<dim>1</dim>
					<dim>1</dim>
				</port>
				<port id="1" precision="FP32">
					<dim>6</dim>
					<dim>24</dim>
					<dim>1</dim>
					<dim>1</dim>
				</port>
			</input>
			<output>
				<port id="2" precision="FP32">
					<dim>1</dim>
					<dim>6</dim>
					<dim>1</dim>
					<dim>1</dim>
				</port>
			</output>
		</layer>
		<layer id="25" name="Conv_9/Dims25361" type="Const" version="opset1">
			<data element_type="f32" offset="4272" shape="1, 6, 1, 1" size="24"/>
			<output>
				<port id="0" precision="FP32">
					<dim>1</dim>
					<dim>6</dim>
					<dim>1</dim>
					<dim>1</dim>
				</port>
			</output>
		</layer>
		<layer id="26" name="Conv_9" type="Add" version="opset1">
			<data auto_broadcast="numpy"/>
			<input>
				<port id="0" precision="FP32">
					<dim>1</dim>
					<dim>6</dim>
					<dim>1</dim>
					<dim>1</dim>
				</port>
				<port id="1" precision="FP32">
					<dim>1</dim>
					<dim>6</dim>
					<dim>1</dim>
					<dim>1</dim>
				</port>
			</input>
			<output>
				<port id="2" names="1258" precision="FP32">
					<dim>1</dim>
					<dim>6</dim>
					<dim>1</dim>
					<dim>1</dim>
				</port>
			</output>
		</layer>
		<layer id="27" name="Mul_11" type="Swish" version="opset4">
			<input>
				<port id="0" precision="FP32">
					<dim>1</dim>
					<dim>6</dim>
					<dim>1</dim>
					<dim>1</dim>
				</port>
			</input>
			<output>
				<port id="1" names="1260" precision="FP32">
					<dim>1</dim>
					<dim>6</dim>
					<dim>1</dim>
					<dim>1</dim>
				</port>
			</output>
		</layer>
		<layer id="28" name="backbone.module.features.stage1.unit1.se.conv2.weight" type="Const" version="opset1">
			<data element_type="f32" offset="4296" shape="24, 6, 1, 1" size="576"/>
			<output>
				<port id="0" names="backbone.module.features.stage1.unit1.se.conv2.weight" precision="FP32">
					<dim>24</dim>
					<dim>6</dim>
					<dim>1</dim>
					<dim>1</dim>
				</port>
			</output>
		</layer>
		<layer id="29" name="Conv_12/WithoutBiases" type="Convolution" version="opset1">
			<data auto_pad="explicit" dilations="1, 1" pads_begin="0, 0" pads_end="0, 0" strides="1, 1"/>
			<input>
				<port id="0" precision="FP32">
					<dim>1</dim>
					<dim>6</dim>
					<dim>1</dim>
					<dim>1</dim>
				</port>
				<port id="1" precision="FP32">
					<dim>24</dim>
					<dim>6</dim>
					<dim>1</dim>
					<dim>1</dim>
				</port>
			</input>
			<output>
				<port id="2" precision="FP32">
					<dim>1</dim>
					<dim>24</dim>
					<dim>1</dim>
					<dim>1</dim>
				</port>
			</output>
		</layer>
		<layer id="30" name="Conv_12/Dims25493" type="Const" version="opset1">
			<data element_type="f32" offset="4872" shape="1, 24, 1, 1" size="96"/>
			<output>
				<port id="0" precision="FP32">
					<dim>1</dim>
					<dim>24</dim>
					<dim>1</dim>
					<dim>1</dim>
				</port>
			</output>
		</layer>
		<layer id="31" name="Conv_12" type="Add" version="opset1">
			<data auto_broadcast="numpy"/>
			<input>
				<port id="0" precision="FP32">
					<dim>1</dim>
					<dim>24</dim>
					<dim>1</dim>
					<dim>1</dim>
				</port>
				<port id="1" precision="FP32">
					<dim>1</dim>
					<dim>24</dim>
					<dim>1</dim>
					<dim>1</dim>
				</port>
			</input>
			<output>
				<port id="2" names="1261" precision="FP32">
					<dim>1</dim>
					<dim>24</dim>
					<dim>1</dim>
					<dim>1</dim>
				</port>
			</output>
		</layer>
		<layer id="32" name="Sigmoid_13" type="Sigmoid" version="opset1">
			<input>
				<port id="0" precision="FP32">
					<dim>1</dim>
					<dim>24</dim>
					<dim>1</dim>
					<dim>1</dim>
				</port>
			</input>
			<output>
				<port id="1" names="1262" precision="FP32">
					<dim>1</dim>
					<dim>24</dim>
					<dim>1</dim>
					<dim>1</dim>
				</port>
			</output>
		</layer>
		<layer id="33" name="Mul_14" type="Multiply" version="opset1">
			<data auto_broadcast="numpy"/>
			<input>
				<port id="0" precision="FP32">
					<dim>1</dim>
					<dim>24</dim>
					<dim>224</dim>
					<dim>224</dim>
				</port>
				<port id="1" precision="FP32">
					<dim>1</dim>
					<dim>24</dim>
					<dim>1</dim>
					<dim>1</dim>
				</port>
			</input>
			<output>
				<port id="2" names="1263" precision="FP32">
					<dim>1</dim>
					<dim>24</dim>
					<dim>224</dim>
					<dim>224</dim>
				</port>
			</output>
		</layer>
		<layer id="34" name="BatchNormalization_16/mean/Fused_Mul__copy" type="Const" version="opset1">
			<data element_type="f32" offset="4968" shape="16, 24, 1, 1" size="1536"/>
			<output>
				<port id="0" names="backbone.module.features.stage1.unit1.pw_conv.conv.weight" precision="FP32">
					<dim>16</dim>
					<dim>24</dim>
					<dim>1</dim>
					<dim>1</dim>
				</port>
			</output>
		</layer>
		<layer id="35" name="Conv_15" type="Convolution" version="opset1">
			<data auto_pad="explicit" dilations="1, 1" pads_begin="0, 0" pads_end="0, 0" strides="1, 1"/>
			<input>
				<port id="0" precision="FP32">
					<dim>1</dim>
					<dim>24</dim>
					<dim>224</dim>
					<dim>224</dim>
				</port>
				<port id="1" precision="FP32">
					<dim>16</dim>
					<dim>24</dim>
					<dim>1</dim>
					<dim>1</dim>
				</port>
			</input>
			<output>
				<port id="2" precision="FP32">
					<dim>1</dim>
					<dim>16</dim>
					<dim>224</dim>
					<dim>224</dim>
				</port>
			</output>
		</layer>
		<layer id="36" name="data_add_4499745002" type="Const" version="opset1">
			<data element_type="f32" offset="6504" shape="1, 16, 1, 1" size="64"/>
			<output>
				<port id="0" precision="FP32">
					<dim>1</dim>
					<dim>16</dim>
					<dim>1</dim>
					<dim>1</dim>
				</port>
			</output>
		</layer>
		<layer id="37" name="BatchNormalization_16/variance/Fused_Add_" type="Add" version="opset1">
			<data auto_broadcast="numpy"/>
			<input>
				<port id="0" precision="FP32">
					<dim>1</dim>
					<dim>16</dim>
					<dim>224</dim>
					<dim>224</dim>
				</port>
				<port id="1" precision="FP32">
					<dim>1</dim>
					<dim>16</dim>
					<dim>1</dim>
					<dim>1</dim>
				</port>
			</input>
			<output>
				<port id="2" names="1265" precision="FP32">
					<dim>1</dim>
					<dim>16</dim>
					<dim>224</dim>
					<dim>224</dim>
				</port>
			</output>
		</layer>
		<layer id="38" name="BatchNormalization_18/mean/Fused_Mul__copy" type="Const" version="opset1">
			<data element_type="f32" offset="6568" shape="96, 16, 1, 1" size="6144"/>
			<output>
				<port id="0" names="backbone.module.features.stage2.unit1.conv1.conv.weight" precision="FP32">
					<dim>96</dim>
					<dim>16</dim>
					<dim>1</dim>
					<dim>1</dim>
				</port>
			</output>
		</layer>
		<layer id="39" name="Conv_17" type="Convolution" version="opset1">
			<data auto_pad="explicit" dilations="1, 1" pads_begin="0, 0" pads_end="0, 0" strides="1, 1"/>
			<input>
				<port id="0" precision="FP32">
					<dim>1</dim>
					<dim>16</dim>
					<dim>224</dim>
					<dim>224</dim>
				</port>
				<port id="1" precision="FP32">
					<dim>96</dim>
					<dim>16</dim>
					<dim>1</dim>
					<dim>1</dim>
				</port>
			</input>
			<output>
				<port id="2" precision="FP32">
					<dim>1</dim>
					<dim>96</dim>
					<dim>224</dim>
					<dim>224</dim>
				</port>
			</output>
		</layer>
		<layer id="40" name="data_add_4500545010" type="Const" version="opset1">
			<data element_type="f32" offset="12712" shape="1, 96, 1, 1" size="384"/>
			<output>
				<port id="0" precision="FP32">
					<dim>1</dim>
					<dim>96</dim>
					<dim>1</dim>
					<dim>1</dim>
				</port>
			</output>
		</layer>
		<layer id="41" name="BatchNormalization_18/variance/Fused_Add_" type="Add" version="opset1">
			<data auto_broadcast="numpy"/>
			<input>
				<port id="0" precision="FP32">
					<dim>1</dim>
					<dim>96</dim>
					<dim>224</dim>
					<dim>224</dim>
				</port>
				<port id="1" precision="FP32">
					<dim>1</dim>
					<dim>96</dim>
					<dim>1</dim>
					<dim>1</dim>
				</port>
			</input>
			<output>
				<port id="2" names="1267" precision="FP32">
					<dim>1</dim>
					<dim>96</dim>
					<dim>224</dim>
					<dim>224</dim>
				</port>
			</output>
		</layer>
		<layer id="42" name="Mul_20" type="Swish" version="opset4">
			<input>
				<port id="0" precision="FP32">
					<dim>1</dim>
					<dim>96</dim>
					<dim>224</dim>
					<dim>224</dim>
				</port>
			</input>
			<output>
				<port id="1" names="1269" precision="FP32">
					<dim>1</dim>
					<dim>96</dim>
					<dim>224</dim>
					<dim>224</dim>
				</port>
			</output>
		</layer>
		<layer id="43" name="BatchNormalization_22/mean/Fused_Mul__copy" type="Const" version="opset1">
			<data element_type="f32" offset="13096" shape="96, 1, 1, 3, 3" size="3456"/>
			<output>
				<port id="0" names="backbone.module.features.stage2.unit1.conv2.conv.weight" precision="FP32">
					<dim>96</dim>
					<dim>1</dim>
					<dim>1</dim>
					<dim>3</dim>
					<dim>3</dim>
				</port>
			</output>
		</layer>
		<layer id="44" name="Conv_21" type="GroupConvolution" version="opset1">
			<data auto_pad="explicit" dilations="1, 1" pads_begin="1, 1" pads_end="1, 1" strides="2, 2"/>
			<input>
				<port id="0" precision="FP32">
					<dim>1</dim>
					<dim>96</dim>
					<dim>224</dim>
					<dim>224</dim>
				</port>
				<port id="1" precision="FP32">
					<dim>96</dim>
					<dim>1</dim>
					<dim>1</dim>
					<dim>3</dim>
					<dim>3</dim>
				</port>
			</input>
			<output>
				<port id="2" precision="FP32">
					<dim>1</dim>
					<dim>96</dim>
					<dim>112</dim>
					<dim>112</dim>
				</port>
			</output>
		</layer>
		<layer id="45" name="data_add_4501345018" type="Const" version="opset1">
			<data element_type="f32" offset="16552" shape="1, 96, 1, 1" size="384"/>
			<output>
				<port id="0" precision="FP32">
					<dim>1</dim>
					<dim>96</dim>
					<dim>1</dim>
					<dim>1</dim>
				</port>
			</output>
		</layer>
		<layer id="46" name="BatchNormalization_22/variance/Fused_Add_" type="Add" version="opset1">
			<data auto_broadcast="numpy"/>
			<input>
				<port id="0" precision="FP32">
					<dim>1</dim>
					<dim>96</dim>
					<dim>112</dim>
					<dim>112</dim>
				</port>
				<port id="1" precision="FP32">
					<dim>1</dim>
					<dim>96</dim>
					<dim>1</dim>
					<dim>1</dim>
				</port>
			</input>
			<output>
				<port id="2" names="1271" precision="FP32">
					<dim>1</dim>
					<dim>96</dim>
					<dim>112</dim>
					<dim>112</dim>
				</port>
			</output>
		</layer>
		<layer id="47" name="Mul_24" type="Swish" version="opset4">
			<input>
				<port id="0" precision="FP32">
					<dim>1</dim>
					<dim>96</dim>
					<dim>112</dim>
					<dim>112</dim>
				</port>
			</input>
			<output>
				<port id="1" names="1273" precision="FP32">
					<dim>1</dim>
					<dim>96</dim>
					<dim>112</dim>
					<dim>112</dim>
				</port>
			</output>
		</layer>
		<layer id="48" name="2572" type="Const" version="opset1">
			<data element_type="i64" offset="3672" shape="" size="8"/>
			<output>
				<port id="0" precision="I64"/>
			</output>
		</layer>
		<layer id="49" name="GlobalAveragePool_25/input_rank/shape_of" type="ShapeOf" version="opset3">
			<data output_type="i64"/>
			<input>
				<port id="0" precision="FP32">
					<dim>1</dim>
					<dim>96</dim>
					<dim>112</dim>
					<dim>112</dim>
				</port>
			</input>
			<output>
				<port id="1" precision="I64">
					<dim>4</dim>
				</port>
			</output>
		</layer>
		<layer id="50" name="GlobalAveragePool_25/input_rank/rank_of" type="ShapeOf" version="opset3">
			<data output_type="i64"/>
			<input>
				<port id="0" precision="I64">
					<dim>4</dim>
				</port>
			</input>
			<output>
				<port id="1" precision="I64">
					<dim>1</dim>
				</port>
			</output>
		</layer>
		<layer id="51" name="GlobalAveragePool_25/input_rank/0d_rank_of/value" type="Const" version="opset1">
			<data element_type="i64" offset="3680" shape="1" size="8"/>
			<output>
				<port id="0" precision="I64">
					<dim>1</dim>
				</port>
			</output>
		</layer>
		<layer id="52" name="GlobalAveragePool_25/input_rank" type="Squeeze" version="opset1">
			<input>
				<port id="0" precision="I64">
					<dim>1</dim>
				</port>
				<port id="1" precision="I64">
					<dim>1</dim>
				</port>
			</input>
			<output>
				<port id="2" precision="I64"/>
			</output>
		</layer>
		<layer id="53" name="2574" type="Const" version="opset1">
			<data element_type="i64" offset="3688" shape="" size="8"/>
			<output>
				<port id="0" precision="I64"/>
			</output>
		</layer>
		<layer id="54" name="GlobalAveragePool_25/global_pooling_reduce_axis" type="Range" version="opset4">
			<data output_type="i64"/>
			<input>
				<port id="0" precision="I64"/>
				<port id="1" precision="I64"/>
				<port id="2" precision="I64"/>
			</input>
			<output>
				<port id="3" precision="I64">
					<dim>2</dim>
				</port>
			</output>
		</layer>
		<layer id="55" name="GlobalAveragePool_25/reduce" type="ReduceMean" version="opset1">
			<data keep_dims="true"/>
			<input>
				<port id="0" precision="FP32">
					<dim>1</dim>
					<dim>96</dim>
					<dim>112</dim>
					<dim>112</dim>
				</port>
				<port id="1" precision="I64">
					<dim>2</dim>
				</port>
			</input>
			<output>
				<port id="2" names="1274" precision="FP32">
					<dim>1</dim>
					<dim>96</dim>
					<dim>1</dim>
					<dim>1</dim>
				</port>
			</output>
		</layer>
		<layer id="56" name="backbone.module.features.stage2.unit1.se.conv1.weight" type="Const" version="opset1">
			<data element_type="f32" offset="16936" shape="4, 96, 1, 1" size="1536"/>
			<output>
				<port id="0" names="backbone.module.features.stage2.unit1.se.conv1.weight" precision="FP32">
					<dim>4</dim>
					<dim>96</dim>
					<dim>1</dim>
					<dim>1</dim>
				</port>
			</output>
		</layer>
		<layer id="57" name="Conv_26/WithoutBiases" type="Convolution" version="opset1">
			<data auto_pad="explicit" dilations="1, 1" pads_begin="0, 0" pads_end="0, 0" strides="1, 1"/>
			<input>
				<port id="0" precision="FP32">
					<dim>1</dim>
					<dim>96</dim>
					<dim>1</dim>
					<dim>1</dim>
				</port>
				<port id="1" precision="FP32">
					<dim>4</dim>
					<dim>96</dim>
					<dim>1</dim>
					<dim>1</dim>
				</port>
			</input>
			<output>
				<port id="2" precision="FP32">
					<dim>1</dim>
					<dim>4</dim>
					<dim>1</dim>
					<dim>1</dim>
				</port>
			</output>
		</layer>
		<layer id="58" name="Conv_26/Dims25433" type="Const" version="opset1">
			<data element_type="f32" offset="18472" shape="1, 4, 1, 1" size="16"/>
			<output>
				<port id="0" precision="FP32">
					<dim>1</dim>
					<dim>4</dim>
					<dim>1</dim>
					<dim>1</dim>
				</port>
			</output>
		</layer>
		<layer id="59" name="Conv_26" type="Add" version="opset1">
			<data auto_broadcast="numpy"/>
			<input>
				<port id="0" precision="FP32">
					<dim>1</dim>
					<dim>4</dim>
					<dim>1</dim>
					<dim>1</dim>
				</port>
				<port id="1" precision="FP32">
					<dim>1</dim>
					<dim>4</dim>
					<dim>1</dim>
					<dim>1</dim>
				</port>
			</input>
			<output>
				<port id="2" names="1275" precision="FP32">
					<dim>1</dim>
					<dim>4</dim>
					<dim>1</dim>
					<dim>1</dim>
				</port>
			</output>
		</layer>
		<layer id="60" name="Mul_28" type="Swish" version="opset4">
			<input>
				<port id="0" precision="FP32">
					<dim>1</dim>
					<dim>4</dim>
					<dim>1</dim>
					<dim>1</dim>
				</port>
			</input>
			<output>
				<port id="1" names="1277" precision="FP32">
					<dim>1</dim>
					<dim>4</dim>
					<dim>1</dim>
					<dim>1</dim>
				</port>
			</output>
		</layer>
		<layer id="61" name="backbone.module.features.stage2.unit1.se.conv2.weight" type="Const" version="opset1">
			<data element_type="f32" offset="18488" shape="96, 4, 1, 1" size="1536"/>
			<output>
				<port id="0" names="backbone.module.features.stage2.unit1.se.conv2.weight" precision="FP32">
					<dim>96</dim>
					<dim>4</dim>
					<dim>1</dim>
					<dim>1</dim>
				</port>
			</output>
		</layer>
		<layer id="62" name="Conv_29/WithoutBiases" type="Convolution" version="opset1">
			<data auto_pad="explicit" dilations="1, 1" pads_begin="0, 0" pads_end="0, 0" strides="1, 1"/>
			<input>
				<port id="0" precision="FP32">
					<dim>1</dim>
					<dim>4</dim>
					<dim>1</dim>
					<dim>1</dim>
				</port>
				<port id="1" precision="FP32">
					<dim>96</dim>
					<dim>4</dim>
					<dim>1</dim>
					<dim>1</dim>
				</port>
			</input>
			<output>
				<port id="2" precision="FP32">
					<dim>1</dim>
					<dim>96</dim>
					<dim>1</dim>
					<dim>1</dim>
				</port>
			</output>
		</layer>
		<layer id="63" name="Conv_29/Dims25367" type="Const" version="opset1">
			<data element_type="f32" offset="20024" shape="1, 96, 1, 1" size="384"/>
			<output>
				<port id="0" precision="FP32">
					<dim>1</dim>
					<dim>96</dim>
					<dim>1</dim>
					<dim>1</dim>
				</port>
			</output>
		</layer>
		<layer id="64" name="Conv_29" type="Add" version="opset1">
			<data auto_broadcast="numpy"/>
			<input>
				<port id="0" precision="FP32">
					<dim>1</dim>
					<dim>96</dim>
					<dim>1</dim>
					<dim>1</dim>
				</port>
				<port id="1" precision="FP32">
					<dim>1</dim>
					<dim>96</dim>
					<dim>1</dim>
					<dim>1</dim>
				</port>
			</input>
			<output>
				<port id="2" names="1278" precision="FP32">
					<dim>1</dim>
					<dim>96</dim>
					<dim>1</dim>
					<dim>1</dim>
				</port>
			</output>
		</layer>
		<layer id="65" name="Sigmoid_30" type="Sigmoid" version="opset1">
			<input>
				<port id="0" precision="FP32">
					<dim>1</dim>
					<dim>96</dim>
					<dim>1</dim>
					<dim>1</dim>
				</port>
			</input>
			<output>
				<port id="1" names="1279" precision="FP32">
					<dim>1</dim>
					<dim>96</dim>
					<dim>1</dim>
					<dim>1</dim>
				</port>
			</output>
		</layer>
		<layer id="66" name="Mul_31" type="Multiply" version="opset1">
			<data auto_broadcast="numpy"/>
			<input>
				<port id="0" precision="FP32">
					<dim>1</dim>
					<dim>96</dim>
					<dim>112</dim>
					<dim>112</dim>
				</port>
				<port id="1" precision="FP32">
					<dim>1</dim>
					<dim>96</dim>
					<dim>1</dim>
					<dim>1</dim>
				</port>
			</input>
			<output>
				<port id="2" names="1280" precision="FP32">
					<dim>1</dim>
					<dim>96</dim>
					<dim>112</dim>
					<dim>112</dim>
				</port>
			</output>
		</layer>
		<layer id="67" name="BatchNormalization_33/mean/Fused_Mul__copy" type="Const" version="opset1">
			<data element_type="f32" offset="20408" shape="24, 96, 1, 1" size="9216"/>
			<output>
				<port id="0" names="backbone.module.features.stage2.unit1.conv3.conv.weight" precision="FP32">
					<dim>24</dim>
					<dim>96</dim>
					<dim>1</dim>
					<dim>1</dim>
				</port>
			</output>
		</layer>
		<layer id="68" name="Conv_32" type="Convolution" version="opset1">
			<data auto_pad="explicit" dilations="1, 1" pads_begin="0, 0" pads_end="0, 0" strides="1, 1"/>
			<input>
				<port id="0" precision="FP32">
					<dim>1</dim>
					<dim>96</dim>
					<dim>112</dim>
					<dim>112</dim>
				</port>
				<port id="1" precision="FP32">
					<dim>24</dim>
					<dim>96</dim>
					<dim>1</dim>
					<dim>1</dim>
				</port>
			</input>
			<output>
				<port id="2" precision="FP32">
					<dim>1</dim>
					<dim>24</dim>
					<dim>112</dim>
					<dim>112</dim>
				</port>
			</output>
		</layer>
		<layer id="69" name="data_add_4502145026" type="Const" version="opset1">
			<data element_type="f32" offset="29624" shape="1, 24, 1, 1" size="96"/>
			<output>
				<port id="0" precision="FP32">
					<dim>1</dim>
					<dim>24</dim>
					<dim>1</dim>
					<dim>1</dim>
				</port>
			</output>
		</layer>
		<layer id="70" name="BatchNormalization_33/variance/Fused_Add_" type="Add" version="opset1">
			<data auto_broadcast="numpy"/>
			<input>
				<port id="0" precision="FP32">
					<dim>1</dim>
					<dim>24</dim>
					<dim>112</dim>
					<dim>112</dim>
				</port>
				<port id="1" precision="FP32">
					<dim>1</dim>
					<dim>24</dim>
					<dim>1</dim>
					<dim>1</dim>
				</port>
			</input>
			<output>
				<port id="2" names="1282" precision="FP32">
					<dim>1</dim>
					<dim>24</dim>
					<dim>112</dim>
					<dim>112</dim>
				</port>
			</output>
		</layer>
		<layer id="71" name="BatchNormalization_35/mean/Fused_Mul__copy" type="Const" version="opset1">
			<data element_type="f32" offset="29720" shape="144, 24, 1, 1" size="13824"/>
			<output>
				<port id="0" names="backbone.module.features.stage2.unit2.conv1.conv.weight" precision="FP32">
					<dim>144</dim>
					<dim>24</dim>
					<dim>1</dim>
					<dim>1</dim>
				</port>
			</output>
		</layer>
		<layer id="72" name="Conv_34" type="Convolution" version="opset1">
			<data auto_pad="explicit" dilations="1, 1" pads_begin="0, 0" pads_end="0, 0" strides="1, 1"/>
			<input>
				<port id="0" precision="FP32">
					<dim>1</dim>
					<dim>24</dim>
					<dim>112</dim>
					<dim>112</dim>
				</port>
				<port id="1" precision="FP32">
					<dim>144</dim>
					<dim>24</dim>
					<dim>1</dim>
					<dim>1</dim>
				</port>
			</input>
			<output>
				<port id="2" precision="FP32">
					<dim>1</dim>
					<dim>144</dim>
					<dim>112</dim>
					<dim>112</dim>
				</port>
			</output>
		</layer>
		<layer id="73" name="data_add_4502945034" type="Const" version="opset1">
			<data element_type="f32" offset="43544" shape="1, 144, 1, 1" size="576"/>
			<output>
				<port id="0" precision="FP32">
					<dim>1</dim>
					<dim>144</dim>
					<dim>1</dim>
					<dim>1</dim>
				</port>
			</output>
		</layer>
		<layer id="74" name="BatchNormalization_35/variance/Fused_Add_" type="Add" version="opset1">
			<data auto_broadcast="numpy"/>
			<input>
				<port id="0" precision="FP32">
					<dim>1</dim>
					<dim>144</dim>
					<dim>112</dim>
					<dim>112</dim>
				</port>
				<port id="1" precision="FP32">
					<dim>1</dim>
					<dim>144</dim>
					<dim>1</dim>
					<dim>1</dim>
				</port>
			</input>
			<output>
				<port id="2" names="1284" precision="FP32">
					<dim>1</dim>
					<dim>144</dim>
					<dim>112</dim>
					<dim>112</dim>
				</port>
			</output>
		</layer>
		<layer id="75" name="Mul_37" type="Swish" version="opset4">
			<input>
				<port id="0" precision="FP32">
					<dim>1</dim>
					<dim>144</dim>
					<dim>112</dim>
					<dim>112</dim>
				</port>
			</input>
			<output>
				<port id="1" names="1286" precision="FP32">
					<dim>1</dim>
					<dim>144</dim>
					<dim>112</dim>
					<dim>112</dim>
				</port>
			</output>
		</layer>
		<layer id="76" name="BatchNormalization_39/mean/Fused_Mul__copy" type="Const" version="opset1">
			<data element_type="f32" offset="44120" shape="144, 1, 1, 3, 3" size="5184"/>
			<output>
				<port id="0" names="backbone.module.features.stage2.unit2.conv2.conv.weight" precision="FP32">
					<dim>144</dim>
					<dim>1</dim>
					<dim>1</dim>
					<dim>3</dim>
					<dim>3</dim>
				</port>
			</output>
		</layer>
		<layer id="77" name="Conv_38" type="GroupConvolution" version="opset1">
			<data auto_pad="explicit" dilations="1, 1" pads_begin="1, 1" pads_end="1, 1" strides="1, 1"/>
			<input>
				<port id="0" precision="FP32">
					<dim>1</dim>
					<dim>144</dim>
					<dim>112</dim>
					<dim>112</dim>
				</port>
				<port id="1" precision="FP32">
					<dim>144</dim>
					<dim>1</dim>
					<dim>1</dim>
					<dim>3</dim>
					<dim>3</dim>
				</port>
			</input>
			<output>
				<port id="2" precision="FP32">
					<dim>1</dim>
					<dim>144</dim>
					<dim>112</dim>
					<dim>112</dim>
				</port>
			</output>
		</layer>
		<layer id="78" name="data_add_4503745042" type="Const" version="opset1">
			<data element_type="f32" offset="49304" shape="1, 144, 1, 1" size="576"/>
			<output>
				<port id="0" precision="FP32">
					<dim>1</dim>
					<dim>144</dim>
					<dim>1</dim>
					<dim>1</dim>
				</port>
			</output>
		</layer>
		<layer id="79" name="BatchNormalization_39/variance/Fused_Add_" type="Add" version="opset1">
			<data auto_broadcast="numpy"/>
			<input>
				<port id="0" precision="FP32">
					<dim>1</dim>
					<dim>144</dim>
					<dim>112</dim>
					<dim>112</dim>
				</port>
				<port id="1" precision="FP32">
					<dim>1</dim>
					<dim>144</dim>
					<dim>1</dim>
					<dim>1</dim>
				</port>
			</input>
			<output>
				<port id="2" names="1288" precision="FP32">
					<dim>1</dim>
					<dim>144</dim>
					<dim>112</dim>
					<dim>112</dim>
				</port>
			</output>
		</layer>
		<layer id="80" name="Mul_41" type="Swish" version="opset4">
			<input>
				<port id="0" precision="FP32">
					<dim>1</dim>
					<dim>144</dim>
					<dim>112</dim>
					<dim>112</dim>
				</port>
			</input>
			<output>
				<port id="1" names="1290" precision="FP32">
					<dim>1</dim>
					<dim>144</dim>
					<dim>112</dim>
					<dim>112</dim>
				</port>
			</output>
		</layer>
		<layer id="81" name="2577" type="Const" version="opset1">
			<data element_type="i64" offset="3672" shape="" size="8"/>
			<output>
				<port id="0" precision="I64"/>
			</output>
		</layer>
		<layer id="82" name="GlobalAveragePool_42/input_rank/shape_of" type="ShapeOf" version="opset3">
			<data output_type="i64"/>
			<input>
				<port id="0" precision="FP32">
					<dim>1</dim>
					<dim>144</dim>
					<dim>112</dim>
					<dim>112</dim>
				</port>
			</input>
			<output>
				<port id="1" precision="I64">
					<dim>4</dim>
				</port>
			</output>
		</layer>
		<layer id="83" name="GlobalAveragePool_42/input_rank/rank_of" type="ShapeOf" version="opset3">
			<data output_type="i64"/>
			<input>
				<port id="0" precision="I64">
					<dim>4</dim>
				</port>
			</input>
			<output>
				<port id="1" precision="I64">
					<dim>1</dim>
				</port>
			</output>
		</layer>
		<layer id="84" name="GlobalAveragePool_42/input_rank/0d_rank_of/value" type="Const" version="opset1">
			<data element_type="i64" offset="3680" shape="1" size="8"/>
			<output>
				<port id="0" precision="I64">
					<dim>1</dim>
				</port>
			</output>
		</layer>
		<layer id="85" name="GlobalAveragePool_42/input_rank" type="Squeeze" version="opset1">
			<input>
				<port id="0" precision="I64">
					<dim>1</dim>
				</port>
				<port id="1" precision="I64">
					<dim>1</dim>
				</port>
			</input>
			<output>
				<port id="2" precision="I64"/>
			</output>
		</layer>
		<layer id="86" name="2579" type="Const" version="opset1">
			<data element_type="i64" offset="3688" shape="" size="8"/>
			<output>
				<port id="0" precision="I64"/>
			</output>
		</layer>
		<layer id="87" name="GlobalAveragePool_42/global_pooling_reduce_axis" type="Range" version="opset4">
			<data output_type="i64"/>
			<input>
				<port id="0" precision="I64"/>
				<port id="1" precision="I64"/>
				<port id="2" precision="I64"/>
			</input>
			<output>
				<port id="3" precision="I64">
					<dim>2</dim>
				</port>
			</output>
		</layer>
		<layer id="88" name="GlobalAveragePool_42/reduce" type="ReduceMean" version="opset1">
			<data keep_dims="true"/>
			<input>
				<port id="0" precision="FP32">
					<dim>1</dim>
					<dim>144</dim>
					<dim>112</dim>
					<dim>112</dim>
				</port>
				<port id="1" precision="I64">
					<dim>2</dim>
				</port>
			</input>
			<output>
				<port id="2" names="1291" precision="FP32">
					<dim>1</dim>
					<dim>144</dim>
					<dim>1</dim>
					<dim>1</dim>
				</port>
			</output>
		</layer>
		<layer id="89" name="backbone.module.features.stage2.unit2.se.conv1.weight" type="Const" version="opset1">
			<data element_type="f32" offset="49880" shape="6, 144, 1, 1" size="3456"/>
			<output>
				<port id="0" names="backbone.module.features.stage2.unit2.se.conv1.weight" precision="FP32">
					<dim>6</dim>
					<dim>144</dim>
					<dim>1</dim>
					<dim>1</dim>
				</port>
			</output>
		</layer>
		<layer id="90" name="Conv_43/WithoutBiases" type="Convolution" version="opset1">
			<data auto_pad="explicit" dilations="1, 1" pads_begin="0, 0" pads_end="0, 0" strides="1, 1"/>
			<input>
				<port id="0" precision="FP32">
					<dim>1</dim>
					<dim>144</dim>
					<dim>1</dim>
					<dim>1</dim>
				</port>
				<port id="1" precision="FP32">
					<dim>6</dim>
					<dim>144</dim>
					<dim>1</dim>
					<dim>1</dim>
				</port>
			</input>
			<output>
				<port id="2" precision="FP32">
					<dim>1</dim>
					<dim>6</dim>
					<dim>1</dim>
					<dim>1</dim>
				</port>
			</output>
		</layer>
		<layer id="91" name="Conv_43/Dims25439" type="Const" version="opset1">
			<data element_type="f32" offset="53336" shape="1, 6, 1, 1" size="24"/>
			<output>
				<port id="0" precision="FP32">
					<dim>1</dim>
					<dim>6</dim>
					<dim>1</dim>
					<dim>1</dim>
				</port>
			</output>
		</layer>
		<layer id="92" name="Conv_43" type="Add" version="opset1">
			<data auto_broadcast="numpy"/>
			<input>
				<port id="0" precision="FP32">
					<dim>1</dim>
					<dim>6</dim>
					<dim>1</dim>
					<dim>1</dim>
				</port>
				<port id="1" precision="FP32">
					<dim>1</dim>
					<dim>6</dim>
					<dim>1</dim>
					<dim>1</dim>
				</port>
			</input>
			<output>
				<port id="2" names="1292" precision="FP32">
					<dim>1</dim>
					<dim>6</dim>
					<dim>1</dim>
					<dim>1</dim>
				</port>
			</output>
		</layer>
		<layer id="93" name="Mul_45" type="Swish" version="opset4">
			<input>
				<port id="0" precision="FP32">
					<dim>1</dim>
					<dim>6</dim>
					<dim>1</dim>
					<dim>1</dim>
				</port>
			</input>
			<output>
				<port id="1" names="1294" precision="FP32">
					<dim>1</dim>
					<dim>6</dim>
					<dim>1</dim>
					<dim>1</dim>
				</port>
			</output>
		</layer>
		<layer id="94" name="backbone.module.features.stage2.unit2.se.conv2.weight" type="Const" version="opset1">
			<data element_type="f32" offset="53360" shape="144, 6, 1, 1" size="3456"/>
			<output>
				<port id="0" names="backbone.module.features.stage2.unit2.se.conv2.weight" precision="FP32">
					<dim>144</dim>
					<dim>6</dim>
					<dim>1</dim>
					<dim>1</dim>
				</port>
			</output>
		</layer>
		<layer id="95" name="Conv_46/WithoutBiases" type="Convolution" version="opset1">
			<data auto_pad="explicit" dilations="1, 1" pads_begin="0, 0" pads_end="0, 0" strides="1, 1"/>
			<input>
				<port id="0" precision="FP32">
					<dim>1</dim>
					<dim>6</dim>
					<dim>1</dim>
					<dim>1</dim>
				</port>
				<port id="1" precision="FP32">
					<dim>144</dim>
					<dim>6</dim>
					<dim>1</dim>
					<dim>1</dim>
				</port>
			</input>
			<output>
				<port id="2" precision="FP32">
					<dim>1</dim>
					<dim>144</dim>
					<dim>1</dim>
					<dim>1</dim>
				</port>
			</output>
		</layer>
		<layer id="96" name="Conv_46/Dims25373" type="Const" version="opset1">
			<data element_type="f32" offset="56816" shape="1, 144, 1, 1" size="576"/>
			<output>
				<port id="0" precision="FP32">
					<dim>1</dim>
					<dim>144</dim>
					<dim>1</dim>
					<dim>1</dim>
				</port>
			</output>
		</layer>
		<layer id="97" name="Conv_46" type="Add" version="opset1">
			<data auto_broadcast="numpy"/>
			<input>
				<port id="0" precision="FP32">
					<dim>1</dim>
					<dim>144</dim>
					<dim>1</dim>
					<dim>1</dim>
				</port>
				<port id="1" precision="FP32">
					<dim>1</dim>
					<dim>144</dim>
					<dim>1</dim>
					<dim>1</dim>
				</port>
			</input>
			<output>
				<port id="2" names="1295" precision="FP32">
					<dim>1</dim>
					<dim>144</dim>
					<dim>1</dim>
					<dim>1</dim>
				</port>
			</output>
		</layer>
		<layer id="98" name="Sigmoid_47" type="Sigmoid" version="opset1">
			<input>
				<port id="0" precision="FP32">
					<dim>1</dim>
					<dim>144</dim>
					<dim>1</dim>
					<dim>1</dim>
				</port>
			</input>
			<output>
				<port id="1" names="1296" precision="FP32">
					<dim>1</dim>
					<dim>144</dim>
					<dim>1</dim>
					<dim>1</dim>
				</port>
			</output>
		</layer>
		<layer id="99" name="Mul_48" type="Multiply" version="opset1">
			<data auto_broadcast="numpy"/>
			<input>
				<port id="0" precision="FP32">
					<dim>1</dim>
					<dim>144</dim>
					<dim>112</dim>
					<dim>112</dim>
				</port>
				<port id="1" precision="FP32">
					<dim>1</dim>
					<dim>144</dim>
					<dim>1</dim>
					<dim>1</dim>
				</port>
			</input>
			<output>
				<port id="2" names="1297" precision="FP32">
					<dim>1</dim>
					<dim>144</dim>
					<dim>112</dim>
					<dim>112</dim>
				</port>
			</output>
		</layer>
		<layer id="100" name="BatchNormalization_50/mean/Fused_Mul__copy" type="Const" version="opset1">
			<data element_type="f32" offset="57392" shape="24, 144, 1, 1" size="13824"/>
			<output>
				<port id="0" names="backbone.module.features.stage2.unit2.conv3.conv.weight" precision="FP32">
					<dim>24</dim>
					<dim>144</dim>
					<dim>1</dim>
					<dim>1</dim>
				</port>
			</output>
		</layer>
		<layer id="101" name="Conv_49" type="Convolution" version="opset1">
			<data auto_pad="explicit" dilations="1, 1" pads_begin="0, 0" pads_end="0, 0" strides="1, 1"/>
			<input>
				<port id="0" precision="FP32">
					<dim>1</dim>
					<dim>144</dim>
					<dim>112</dim>
					<dim>112</dim>
				</port>
				<port id="1" precision="FP32">
					<dim>24</dim>
					<dim>144</dim>
					<dim>1</dim>
					<dim>1</dim>
				</port>
			</input>
			<output>
				<port id="2" precision="FP32">
					<dim>1</dim>
					<dim>24</dim>
					<dim>112</dim>
					<dim>112</dim>
				</port>
			</output>
		</layer>
		<layer id="102" name="data_add_4504545050" type="Const" version="opset1">
			<data element_type="f32" offset="71216" shape="1, 24, 1, 1" size="96"/>
			<output>
				<port id="0" precision="FP32">
					<dim>1</dim>
					<dim>24</dim>
					<dim>1</dim>
					<dim>1</dim>
				</port>
			</output>
		</layer>
		<layer id="103" name="BatchNormalization_50/variance/Fused_Add_" type="Add" version="opset1">
			<data auto_broadcast="numpy"/>
			<input>
				<port id="0" precision="FP32">
					<dim>1</dim>
					<dim>24</dim>
					<dim>112</dim>
					<dim>112</dim>
				</port>
				<port id="1" precision="FP32">
					<dim>1</dim>
					<dim>24</dim>
					<dim>1</dim>
					<dim>1</dim>
				</port>
			</input>
			<output>
				<port id="2" names="1299" precision="FP32">
					<dim>1</dim>
					<dim>24</dim>
					<dim>112</dim>
					<dim>112</dim>
				</port>
			</output>
		</layer>
		<layer id="104" name="Add_51" type="Add" version="opset1">
			<data auto_broadcast="numpy"/>
			<input>
				<port id="0" precision="FP32">
					<dim>1</dim>
					<dim>24</dim>
					<dim>112</dim>
					<dim>112</dim>
				</port>
				<port id="1" precision="FP32">
					<dim>1</dim>
					<dim>24</dim>
					<dim>112</dim>
					<dim>112</dim>
				</port>
			</input>
			<output>
				<port id="2" names="1300" precision="FP32">
					<dim>1</dim>
					<dim>24</dim>
					<dim>112</dim>
					<dim>112</dim>
				</port>
			</output>
		</layer>
		<layer id="105" name="BatchNormalization_264/mean/Fused_Mul__copy" type="Const" version="opset1">
			<data element_type="f32" offset="71312" shape="21, 24, 3, 3" size="18144"/>
			<output>
				<port id="0" names="backbone.module.transition.0.0.weight" precision="FP32">
					<dim>21</dim>
					<dim>24</dim>
					<dim>3</dim>
					<dim>3</dim>
				</port>
			</output>
		</layer>
		<layer id="106" name="Conv_263" type="Convolution" version="opset1">
			<data auto_pad="explicit" dilations="1, 1" pads_begin="1, 1" pads_end="1, 1" strides="1, 1"/>
			<input>
				<port id="0" precision="FP32">
					<dim>1</dim>
					<dim>24</dim>
					<dim>112</dim>
					<dim>112</dim>
				</port>
				<port id="1" precision="FP32">
					<dim>21</dim>
					<dim>24</dim>
					<dim>3</dim>
					<dim>3</dim>
				</port>
			</input>
			<output>
				<port id="2" precision="FP32">
					<dim>1</dim>
					<dim>21</dim>
					<dim>112</dim>
					<dim>112</dim>
				</port>
			</output>
		</layer>
		<layer id="107" name="data_add_4505345058" type="Const" version="opset1">
			<data element_type="f32" offset="89456" shape="1, 21, 1, 1" size="84"/>
			<output>
				<port id="0" precision="FP32">
					<dim>1</dim>
					<dim>21</dim>
					<dim>1</dim>
					<dim>1</dim>
				</port>
			</output>
		</layer>
		<layer id="108" name="BatchNormalization_264/variance/Fused_Add_" type="Add" version="opset1">
			<data auto_broadcast="numpy"/>
			<input>
				<port id="0" precision="FP32">
					<dim>1</dim>
					<dim>21</dim>
					<dim>112</dim>
					<dim>112</dim>
				</port>
				<port id="1" precision="FP32">
					<dim>1</dim>
					<dim>21</dim>
					<dim>1</dim>
					<dim>1</dim>
				</port>
			</input>
			<output>
				<port id="2" names="1513" precision="FP32">
					<dim>1</dim>
					<dim>21</dim>
					<dim>112</dim>
					<dim>112</dim>
				</port>
			</output>
		</layer>
		<layer id="109" name="Relu_265" type="ReLU" version="opset1">
			<input>
				<port id="0" precision="FP32">
					<dim>1</dim>
					<dim>21</dim>
					<dim>112</dim>
					<dim>112</dim>
				</port>
			</input>
			<output>
				<port id="1" names="1514" precision="FP32">
					<dim>1</dim>
					<dim>21</dim>
					<dim>112</dim>
					<dim>112</dim>
				</port>
			</output>
		</layer>
		<layer id="110" name="BatchNormalization_276/mean/Fused_Mul__copy" type="Const" version="opset1">
			<data element_type="f32" offset="89540" shape="21, 21, 3, 3" size="15876"/>
			<output>
				<port id="0" names="backbone.module.stages.0.0.branches.0.0.conv1.weight" precision="FP32">
					<dim>21</dim>
					<dim>21</dim>
					<dim>3</dim>
					<dim>3</dim>
				</port>
			</output>
		</layer>
		<layer id="111" name="Conv_275" type="Convolution" version="opset1">
			<data auto_pad="explicit" dilations="1, 1" pads_begin="1, 1" pads_end="1, 1" strides="1, 1"/>
			<input>
				<port id="0" precision="FP32">
					<dim>1</dim>
					<dim>21</dim>
					<dim>112</dim>
					<dim>112</dim>
				</port>
				<port id="1" precision="FP32">
					<dim>21</dim>
					<dim>21</dim>
					<dim>3</dim>
					<dim>3</dim>
				</port>
			</input>
			<output>
				<port id="2" precision="FP32">
					<dim>1</dim>
					<dim>21</dim>
					<dim>112</dim>
					<dim>112</dim>
				</port>
			</output>
		</layer>
		<layer id="112" name="data_add_4506145066" type="Const" version="opset1">
			<data element_type="f32" offset="105416" shape="1, 21, 1, 1" size="84"/>
			<output>
				<port id="0" precision="FP32">
					<dim>1</dim>
					<dim>21</dim>
					<dim>1</dim>
					<dim>1</dim>
				</port>
			</output>
		</layer>
		<layer id="113" name="BatchNormalization_276/variance/Fused_Add_" type="Add" version="opset1">
			<data auto_broadcast="numpy"/>
			<input>
				<port id="0" precision="FP32">
					<dim>1</dim>
					<dim>21</dim>
					<dim>112</dim>
					<dim>112</dim>
				</port>
				<port id="1" precision="FP32">
					<dim>1</dim>
					<dim>21</dim>
					<dim>1</dim>
					<dim>1</dim>
				</port>
			</input>
			<output>
				<port id="2" names="1525" precision="FP32">
					<dim>1</dim>
					<dim>21</dim>
					<dim>112</dim>
					<dim>112</dim>
				</port>
			</output>
		</layer>
		<layer id="114" name="Relu_277" type="ReLU" version="opset1">
			<input>
				<port id="0" precision="FP32">
					<dim>1</dim>
					<dim>21</dim>
					<dim>112</dim>
					<dim>112</dim>
				</port>
			</input>
			<output>
				<port id="1" names="1526" precision="FP32">
					<dim>1</dim>
					<dim>21</dim>
					<dim>112</dim>
					<dim>112</dim>
				</port>
			</output>
		</layer>
		<layer id="115" name="BatchNormalization_279/mean/Fused_Mul__copy" type="Const" version="opset1">
			<data element_type="f32" offset="105500" shape="21, 21, 3, 3" size="15876"/>
			<output>
				<port id="0" names="backbone.module.stages.0.0.branches.0.0.conv2.weight" precision="FP32">
					<dim>21</dim>
					<dim>21</dim>
					<dim>3</dim>
					<dim>3</dim>
				</port>
			</output>
		</layer>
		<layer id="116" name="Conv_278" type="Convolution" version="opset1">
			<data auto_pad="explicit" dilations="1, 1" pads_begin="1, 1" pads_end="1, 1" strides="1, 1"/>
			<input>
				<port id="0" precision="FP32">
					<dim>1</dim>
					<dim>21</dim>
					<dim>112</dim>
					<dim>112</dim>
				</port>
				<port id="1" precision="FP32">
					<dim>21</dim>
					<dim>21</dim>
					<dim>3</dim>
					<dim>3</dim>
				</port>
			</input>
			<output>
				<port id="2" precision="FP32">
					<dim>1</dim>
					<dim>21</dim>
					<dim>112</dim>
					<dim>112</dim>
				</port>
			</output>
		</layer>
		<layer id="117" name="data_add_4506945074" type="Const" version="opset1">
			<data element_type="f32" offset="121376" shape="1, 21, 1, 1" size="84"/>
			<output>
				<port id="0" precision="FP32">
					<dim>1</dim>
					<dim>21</dim>
					<dim>1</dim>
					<dim>1</dim>
				</port>
			</output>
		</layer>
		<layer id="118" name="BatchNormalization_279/variance/Fused_Add_" type="Add" version="opset1">
			<data auto_broadcast="numpy"/>
			<input>
				<port id="0" precision="FP32">
					<dim>1</dim>
					<dim>21</dim>
					<dim>112</dim>
					<dim>112</dim>
				</port>
				<port id="1" precision="FP32">
					<dim>1</dim>
					<dim>21</dim>
					<dim>1</dim>
					<dim>1</dim>
				</port>
			</input>
			<output>
				<port id="2" names="1528" precision="FP32">
					<dim>1</dim>
					<dim>21</dim>
					<dim>112</dim>
					<dim>112</dim>
				</port>
			</output>
		</layer>
		<layer id="119" name="Add_280" type="Add" version="opset1">
			<data auto_broadcast="numpy"/>
			<input>
				<port id="0" precision="FP32">
					<dim>1</dim>
					<dim>21</dim>
					<dim>112</dim>
					<dim>112</dim>
				</port>
				<port id="1" precision="FP32">
					<dim>1</dim>
					<dim>21</dim>
					<dim>112</dim>
					<dim>112</dim>
				</port>
			</input>
			<output>
				<port id="2" names="1529" precision="FP32">
					<dim>1</dim>
					<dim>21</dim>
					<dim>112</dim>
					<dim>112</dim>
				</port>
			</output>
		</layer>
		<layer id="120" name="Relu_281" type="ReLU" version="opset1">
			<input>
				<port id="0" precision="FP32">
					<dim>1</dim>
					<dim>21</dim>
					<dim>112</dim>
					<dim>112</dim>
				</port>
			</input>
			<output>
				<port id="1" names="1530" precision="FP32">
					<dim>1</dim>
					<dim>21</dim>
					<dim>112</dim>
					<dim>112</dim>
				</port>
			</output>
		</layer>
		<layer id="121" name="BatchNormalization_283/mean/Fused_Mul__copy" type="Const" version="opset1">
			<data element_type="f32" offset="121460" shape="21, 21, 3, 3" size="15876"/>
			<output>
				<port id="0" names="backbone.module.stages.0.0.branches.0.1.conv1.weight" precision="FP32">
					<dim>21</dim>
					<dim>21</dim>
					<dim>3</dim>
					<dim>3</dim>
				</port>
			</output>
		</layer>
		<layer id="122" name="Conv_282" type="Convolution" version="opset1">
			<data auto_pad="explicit" dilations="1, 1" pads_begin="1, 1" pads_end="1, 1" strides="1, 1"/>
			<input>
				<port id="0" precision="FP32">
					<dim>1</dim>
					<dim>21</dim>
					<dim>112</dim>
					<dim>112</dim>
				</port>
				<port id="1" precision="FP32">
					<dim>21</dim>
					<dim>21</dim>
					<dim>3</dim>
					<dim>3</dim>
				</port>
			</input>
			<output>
				<port id="2" precision="FP32">
					<dim>1</dim>
					<dim>21</dim>
					<dim>112</dim>
					<dim>112</dim>
				</port>
			</output>
		</layer>
		<layer id="123" name="data_add_4507745082" type="Const" version="opset1">
			<data element_type="f32" offset="137336" shape="1, 21, 1, 1" size="84"/>
			<output>
				<port id="0" precision="FP32">
					<dim>1</dim>
					<dim>21</dim>
					<dim>1</dim>
					<dim>1</dim>
				</port>
			</output>
		</layer>
		<layer id="124" name="BatchNormalization_283/variance/Fused_Add_" type="Add" version="opset1">
			<data auto_broadcast="numpy"/>
			<input>
				<port id="0" precision="FP32">
					<dim>1</dim>
					<dim>21</dim>
					<dim>112</dim>
					<dim>112</dim>
				</port>
				<port id="1" precision="FP32">
					<dim>1</dim>
					<dim>21</dim>
					<dim>1</dim>
					<dim>1</dim>
				</port>
			</input>
			<output>
				<port id="2" names="1532" precision="FP32">
					<dim>1</dim>
					<dim>21</dim>
					<dim>112</dim>
					<dim>112</dim>
				</port>
			</output>
		</layer>
		<layer id="125" name="Relu_284" type="ReLU" version="opset1">
			<input>
				<port id="0" precision="FP32">
					<dim>1</dim>
					<dim>21</dim>
					<dim>112</dim>
					<dim>112</dim>
				</port>
			</input>
			<output>
				<port id="1" names="1533" precision="FP32">
					<dim>1</dim>
					<dim>21</dim>
					<dim>112</dim>
					<dim>112</dim>
				</port>
			</output>
		</layer>
		<layer id="126" name="BatchNormalization_286/mean/Fused_Mul__copy" type="Const" version="opset1">
			<data element_type="f32" offset="137420" shape="21, 21, 3, 3" size="15876"/>
			<output>
				<port id="0" names="backbone.module.stages.0.0.branches.0.1.conv2.weight" precision="FP32">
					<dim>21</dim>
					<dim>21</dim>
					<dim>3</dim>
					<dim>3</dim>
				</port>
			</output>
		</layer>
		<layer id="127" name="Conv_285" type="Convolution" version="opset1">
			<data auto_pad="explicit" dilations="1, 1" pads_begin="1, 1" pads_end="1, 1" strides="1, 1"/>
			<input>
				<port id="0" precision="FP32">
					<dim>1</dim>
					<dim>21</dim>
					<dim>112</dim>
					<dim>112</dim>
				</port>
				<port id="1" precision="FP32">
					<dim>21</dim>
					<dim>21</dim>
					<dim>3</dim>
					<dim>3</dim>
				</port>
			</input>
			<output>
				<port id="2" precision="FP32">
					<dim>1</dim>
					<dim>21</dim>
					<dim>112</dim>
					<dim>112</dim>
				</port>
			</output>
		</layer>
		<layer id="128" name="data_add_4508545090" type="Const" version="opset1">
			<data element_type="f32" offset="153296" shape="1, 21, 1, 1" size="84"/>
			<output>
				<port id="0" precision="FP32">
					<dim>1</dim>
					<dim>21</dim>
					<dim>1</dim>
					<dim>1</dim>
				</port>
			</output>
		</layer>
		<layer id="129" name="BatchNormalization_286/variance/Fused_Add_" type="Add" version="opset1">
			<data auto_broadcast="numpy"/>
			<input>
				<port id="0" precision="FP32">
					<dim>1</dim>
					<dim>21</dim>
					<dim>112</dim>
					<dim>112</dim>
				</port>
				<port id="1" precision="FP32">
					<dim>1</dim>
					<dim>21</dim>
					<dim>1</dim>
					<dim>1</dim>
				</port>
			</input>
			<output>
				<port id="2" names="1535" precision="FP32">
					<dim>1</dim>
					<dim>21</dim>
					<dim>112</dim>
					<dim>112</dim>
				</port>
			</output>
		</layer>
		<layer id="130" name="Add_287" type="Add" version="opset1">
			<data auto_broadcast="numpy"/>
			<input>
				<port id="0" precision="FP32">
					<dim>1</dim>
					<dim>21</dim>
					<dim>112</dim>
					<dim>112</dim>
				</port>
				<port id="1" precision="FP32">
					<dim>1</dim>
					<dim>21</dim>
					<dim>112</dim>
					<dim>112</dim>
				</port>
			</input>
			<output>
				<port id="2" names="1536" precision="FP32">
					<dim>1</dim>
					<dim>21</dim>
					<dim>112</dim>
					<dim>112</dim>
				</port>
			</output>
		</layer>
		<layer id="131" name="Relu_288" type="ReLU" version="opset1">
			<input>
				<port id="0" precision="FP32">
					<dim>1</dim>
					<dim>21</dim>
					<dim>112</dim>
					<dim>112</dim>
				</port>
			</input>
			<output>
				<port id="1" names="1537" precision="FP32">
					<dim>1</dim>
					<dim>21</dim>
					<dim>112</dim>
					<dim>112</dim>
				</port>
			</output>
		</layer>
		<layer id="132" name="Constant_303" type="Const" version="opset1">
			<data element_type="f32" offset="153380" shape="1, 1, 1, 1" size="4"/>
			<output>
				<port id="0" names="1552" precision="FP32">
					<dim>1</dim>
					<dim>1</dim>
					<dim>1</dim>
					<dim>1</dim>
				</port>
			</output>
		</layer>
		<layer id="133" name="Add_304" type="Add" version="opset1">
			<data auto_broadcast="numpy"/>
			<input>
				<port id="0" precision="FP32">
					<dim>1</dim>
					<dim>21</dim>
					<dim>112</dim>
					<dim>112</dim>
				</port>
				<port id="1" precision="FP32">
					<dim>1</dim>
					<dim>1</dim>
					<dim>1</dim>
					<dim>1</dim>
				</port>
			</input>
			<output>
				<port id="2" names="1553" precision="FP32">
					<dim>1</dim>
					<dim>21</dim>
					<dim>112</dim>
					<dim>112</dim>
				</port>
			</output>
		</layer>
		<layer id="134" name="BatchNormalization_53/mean/Fused_Mul__copy" type="Const" version="opset1">
			<data element_type="f32" offset="153384" shape="144, 24, 1, 1" size="13824"/>
			<output>
				<port id="0" names="backbone.module.features.stage3.unit1.conv1.conv.weight" precision="FP32">
					<dim>144</dim>
					<dim>24</dim>
					<dim>1</dim>
					<dim>1</dim>
				</port>
			</output>
		</layer>
		<layer id="135" name="Conv_52" type="Convolution" version="opset1">
			<data auto_pad="explicit" dilations="1, 1" pads_begin="0, 0" pads_end="0, 0" strides="1, 1"/>
			<input>
				<port id="0" precision="FP32">
					<dim>1</dim>
					<dim>24</dim>
					<dim>112</dim>
					<dim>112</dim>
				</port>
				<port id="1" precision="FP32">
					<dim>144</dim>
					<dim>24</dim>
					<dim>1</dim>
					<dim>1</dim>
				</port>
			</input>
			<output>
				<port id="2" precision="FP32">
					<dim>1</dim>
					<dim>144</dim>
					<dim>112</dim>
					<dim>112</dim>
				</port>
			</output>
		</layer>
		<layer id="136" name="data_add_4510145106" type="Const" version="opset1">
			<data element_type="f32" offset="167208" shape="1, 144, 1, 1" size="576"/>
			<output>
				<port id="0" precision="FP32">
					<dim>1</dim>
					<dim>144</dim>
					<dim>1</dim>
					<dim>1</dim>
				</port>
			</output>
		</layer>
		<layer id="137" name="BatchNormalization_53/variance/Fused_Add_" type="Add" version="opset1">
			<data auto_broadcast="numpy"/>
			<input>
				<port id="0" precision="FP32">
					<dim>1</dim>
					<dim>144</dim>
					<dim>112</dim>
					<dim>112</dim>
				</port>
				<port id="1" precision="FP32">
					<dim>1</dim>
					<dim>144</dim>
					<dim>1</dim>
					<dim>1</dim>
				</port>
			</input>
			<output>
				<port id="2" names="1302" precision="FP32">
					<dim>1</dim>
					<dim>144</dim>
					<dim>112</dim>
					<dim>112</dim>
				</port>
			</output>
		</layer>
		<layer id="138" name="Mul_55" type="Swish" version="opset4">
			<input>
				<port id="0" precision="FP32">
					<dim>1</dim>
					<dim>144</dim>
					<dim>112</dim>
					<dim>112</dim>
				</port>
			</input>
			<output>
				<port id="1" names="1304" precision="FP32">
					<dim>1</dim>
					<dim>144</dim>
					<dim>112</dim>
					<dim>112</dim>
				</port>
			</output>
		</layer>
		<layer id="139" name="BatchNormalization_57/mean/Fused_Mul__copy" type="Const" version="opset1">
			<data element_type="f32" offset="167784" shape="144, 1, 1, 5, 5" size="14400"/>
			<output>
				<port id="0" names="backbone.module.features.stage3.unit1.conv2.conv.weight" precision="FP32">
					<dim>144</dim>
					<dim>1</dim>
					<dim>1</dim>
					<dim>5</dim>
					<dim>5</dim>
				</port>
			</output>
		</layer>
		<layer id="140" name="Conv_56" type="GroupConvolution" version="opset1">
			<data auto_pad="explicit" dilations="1, 1" pads_begin="2, 2" pads_end="2, 2" strides="2, 2"/>
			<input>
				<port id="0" precision="FP32">
					<dim>1</dim>
					<dim>144</dim>
					<dim>112</dim>
					<dim>112</dim>
				</port>
				<port id="1" precision="FP32">
					<dim>144</dim>
					<dim>1</dim>
					<dim>1</dim>
					<dim>5</dim>
					<dim>5</dim>
				</port>
			</input>
			<output>
				<port id="2" precision="FP32">
					<dim>1</dim>
					<dim>144</dim>
					<dim>56</dim>
					<dim>56</dim>
				</port>
			</output>
		</layer>
		<layer id="141" name="data_add_4510945114" type="Const" version="opset1">
			<data element_type="f32" offset="182184" shape="1, 144, 1, 1" size="576"/>
			<output>
				<port id="0" precision="FP32">
					<dim>1</dim>
					<dim>144</dim>
					<dim>1</dim>
					<dim>1</dim>
				</port>
			</output>
		</layer>
		<layer id="142" name="BatchNormalization_57/variance/Fused_Add_" type="Add" version="opset1">
			<data auto_broadcast="numpy"/>
			<input>
				<port id="0" precision="FP32">
					<dim>1</dim>
					<dim>144</dim>
					<dim>56</dim>
					<dim>56</dim>
				</port>
				<port id="1" precision="FP32">
					<dim>1</dim>
					<dim>144</dim>
					<dim>1</dim>
					<dim>1</dim>
				</port>
			</input>
			<output>
				<port id="2" names="1306" precision="FP32">
					<dim>1</dim>
					<dim>144</dim>
					<dim>56</dim>
					<dim>56</dim>
				</port>
			</output>
		</layer>
		<layer id="143" name="Mul_59" type="Swish" version="opset4">
			<input>
				<port id="0" precision="FP32">
					<dim>1</dim>
					<dim>144</dim>
					<dim>56</dim>
					<dim>56</dim>
				</port>
			</input>
			<output>
				<port id="1" names="1308" precision="FP32">
					<dim>1</dim>
					<dim>144</dim>
					<dim>56</dim>
					<dim>56</dim>
				</port>
			</output>
		</layer>
		<layer id="144" name="2582" type="Const" version="opset1">
			<data element_type="i64" offset="3672" shape="" size="8"/>
			<output>
				<port id="0" precision="I64"/>
			</output>
		</layer>
		<layer id="145" name="GlobalAveragePool_60/input_rank/shape_of" type="ShapeOf" version="opset3">
			<data output_type="i64"/>
			<input>
				<port id="0" precision="FP32">
					<dim>1</dim>
					<dim>144</dim>
					<dim>56</dim>
					<dim>56</dim>
				</port>
			</input>
			<output>
				<port id="1" precision="I64">
					<dim>4</dim>
				</port>
			</output>
		</layer>
		<layer id="146" name="GlobalAveragePool_60/input_rank/rank_of" type="ShapeOf" version="opset3">
			<data output_type="i64"/>
			<input>
				<port id="0" precision="I64">
					<dim>4</dim>
				</port>
			</input>
			<output>
				<port id="1" precision="I64">
					<dim>1</dim>
				</port>
			</output>
		</layer>
		<layer id="147" name="GlobalAveragePool_60/input_rank/0d_rank_of/value" type="Const" version="opset1">
			<data element_type="i64" offset="3680" shape="1" size="8"/>
			<output>
				<port id="0" precision="I64">
					<dim>1</dim>
				</port>
			</output>
		</layer>
		<layer id="148" name="GlobalAveragePool_60/input_rank" type="Squeeze" version="opset1">
			<input>
				<port id="0" precision="I64">
					<dim>1</dim>
				</port>
				<port id="1" precision="I64">
					<dim>1</dim>
				</port>
			</input>
			<output>
				<port id="2" precision="I64"/>
			</output>
		</layer>
		<layer id="149" name="2584" type="Const" version="opset1">
			<data element_type="i64" offset="3688" shape="" size="8"/>
			<output>
				<port id="0" precision="I64"/>
			</output>
		</layer>
		<layer id="150" name="GlobalAveragePool_60/global_pooling_reduce_axis" type="Range" version="opset4">
			<data output_type="i64"/>
			<input>
				<port id="0" precision="I64"/>
				<port id="1" precision="I64"/>
				<port id="2" precision="I64"/>
			</input>
			<output>
				<port id="3" precision="I64">
					<dim>2</dim>
				</port>
			</output>
		</layer>
		<layer id="151" name="GlobalAveragePool_60/reduce" type="ReduceMean" version="opset1">
			<data keep_dims="true"/>
			<input>
				<port id="0" precision="FP32">
					<dim>1</dim>
					<dim>144</dim>
					<dim>56</dim>
					<dim>56</dim>
				</port>
				<port id="1" precision="I64">
					<dim>2</dim>
				</port>
			</input>
			<output>
				<port id="2" names="1309" precision="FP32">
					<dim>1</dim>
					<dim>144</dim>
					<dim>1</dim>
					<dim>1</dim>
				</port>
			</output>
		</layer>
		<layer id="152" name="backbone.module.features.stage3.unit1.se.conv1.weight" type="Const" version="opset1">
			<data element_type="f32" offset="182760" shape="6, 144, 1, 1" size="3456"/>
			<output>
				<port id="0" names="backbone.module.features.stage3.unit1.se.conv1.weight" precision="FP32">
					<dim>6</dim>
					<dim>144</dim>
					<dim>1</dim>
					<dim>1</dim>
				</port>
			</output>
		</layer>
		<layer id="153" name="Conv_61/WithoutBiases" type="Convolution" version="opset1">
			<data auto_pad="explicit" dilations="1, 1" pads_begin="0, 0" pads_end="0, 0" strides="1, 1"/>
			<input>
				<port id="0" precision="FP32">
					<dim>1</dim>
					<dim>144</dim>
					<dim>1</dim>
					<dim>1</dim>
				</port>
				<port id="1" precision="FP32">
					<dim>6</dim>
					<dim>144</dim>
					<dim>1</dim>
					<dim>1</dim>
				</port>
			</input>
			<output>
				<port id="2" precision="FP32">
					<dim>1</dim>
					<dim>6</dim>
					<dim>1</dim>
					<dim>1</dim>
				</port>
			</output>
		</layer>
		<layer id="154" name="Conv_61/Dims25421" type="Const" version="opset1">
			<data element_type="f32" offset="186216" shape="1, 6, 1, 1" size="24"/>
			<output>
				<port id="0" precision="FP32">
					<dim>1</dim>
					<dim>6</dim>
					<dim>1</dim>
					<dim>1</dim>
				</port>
			</output>
		</layer>
		<layer id="155" name="Conv_61" type="Add" version="opset1">
			<data auto_broadcast="numpy"/>
			<input>
				<port id="0" precision="FP32">
					<dim>1</dim>
					<dim>6</dim>
					<dim>1</dim>
					<dim>1</dim>
				</port>
				<port id="1" precision="FP32">
					<dim>1</dim>
					<dim>6</dim>
					<dim>1</dim>
					<dim>1</dim>
				</port>
			</input>
			<output>
				<port id="2" names="1310" precision="FP32">
					<dim>1</dim>
					<dim>6</dim>
					<dim>1</dim>
					<dim>1</dim>
				</port>
			</output>
		</layer>
		<layer id="156" name="Mul_63" type="Swish" version="opset4">
			<input>
				<port id="0" precision="FP32">
					<dim>1</dim>
					<dim>6</dim>
					<dim>1</dim>
					<dim>1</dim>
				</port>
			</input>
			<output>
				<port id="1" names="1312" precision="FP32">
					<dim>1</dim>
					<dim>6</dim>
					<dim>1</dim>
					<dim>1</dim>
				</port>
			</output>
		</layer>
		<layer id="157" name="backbone.module.features.stage3.unit1.se.conv2.weight" type="Const" version="opset1">
			<data element_type="f32" offset="186240" shape="144, 6, 1, 1" size="3456"/>
			<output>
				<port id="0" names="backbone.module.features.stage3.unit1.se.conv2.weight" precision="FP32">
					<dim>144</dim>
					<dim>6</dim>
					<dim>1</dim>
					<dim>1</dim>
				</port>
			</output>
		</layer>
		<layer id="158" name="Conv_64/WithoutBiases" type="Convolution" version="opset1">
			<data auto_pad="explicit" dilations="1, 1" pads_begin="0, 0" pads_end="0, 0" strides="1, 1"/>
			<input>
				<port id="0" precision="FP32">
					<dim>1</dim>
					<dim>6</dim>
					<dim>1</dim>
					<dim>1</dim>
				</port>
				<port id="1" precision="FP32">
					<dim>144</dim>
					<dim>6</dim>
					<dim>1</dim>
					<dim>1</dim>
				</port>
			</input>
			<output>
				<port id="2" precision="FP32">
					<dim>1</dim>
					<dim>144</dim>
					<dim>1</dim>
					<dim>1</dim>
				</port>
			</output>
		</layer>
		<layer id="159" name="Conv_64/Dims25451" type="Const" version="opset1">
			<data element_type="f32" offset="189696" shape="1, 144, 1, 1" size="576"/>
			<output>
				<port id="0" precision="FP32">
					<dim>1</dim>
					<dim>144</dim>
					<dim>1</dim>
					<dim>1</dim>
				</port>
			</output>
		</layer>
		<layer id="160" name="Conv_64" type="Add" version="opset1">
			<data auto_broadcast="numpy"/>
			<input>
				<port id="0" precision="FP32">
					<dim>1</dim>
					<dim>144</dim>
					<dim>1</dim>
					<dim>1</dim>
				</port>
				<port id="1" precision="FP32">
					<dim>1</dim>
					<dim>144</dim>
					<dim>1</dim>
					<dim>1</dim>
				</port>
			</input>
			<output>
				<port id="2" names="1313" precision="FP32">
					<dim>1</dim>
					<dim>144</dim>
					<dim>1</dim>
					<dim>1</dim>
				</port>
			</output>
		</layer>
		<layer id="161" name="Sigmoid_65" type="Sigmoid" version="opset1">
			<input>
				<port id="0" precision="FP32">
					<dim>1</dim>
					<dim>144</dim>
					<dim>1</dim>
					<dim>1</dim>
				</port>
			</input>
			<output>
				<port id="1" names="1314" precision="FP32">
					<dim>1</dim>
					<dim>144</dim>
					<dim>1</dim>
					<dim>1</dim>
				</port>
			</output>
		</layer>
		<layer id="162" name="Mul_66" type="Multiply" version="opset1">
			<data auto_broadcast="numpy"/>
			<input>
				<port id="0" precision="FP32">
					<dim>1</dim>
					<dim>144</dim>
					<dim>56</dim>
					<dim>56</dim>
				</port>
				<port id="1" precision="FP32">
					<dim>1</dim>
					<dim>144</dim>
					<dim>1</dim>
					<dim>1</dim>
				</port>
			</input>
			<output>
				<port id="2" names="1315" precision="FP32">
					<dim>1</dim>
					<dim>144</dim>
					<dim>56</dim>
					<dim>56</dim>
				</port>
			</output>
		</layer>
		<layer id="163" name="BatchNormalization_68/mean/Fused_Mul__copy" type="Const" version="opset1">
			<data element_type="f32" offset="190272" shape="32, 144, 1, 1" size="18432"/>
			<output>
				<port id="0" names="backbone.module.features.stage3.unit1.conv3.conv.weight" precision="FP32">
					<dim>32</dim>
					<dim>144</dim>
					<dim>1</dim>
					<dim>1</dim>
				</port>
			</output>
		</layer>
		<layer id="164" name="Conv_67" type="Convolution" version="opset1">
			<data auto_pad="explicit" dilations="1, 1" pads_begin="0, 0" pads_end="0, 0" strides="1, 1"/>
			<input>
				<port id="0" precision="FP32">
					<dim>1</dim>
					<dim>144</dim>
					<dim>56</dim>
					<dim>56</dim>
				</port>
				<port id="1" precision="FP32">
					<dim>32</dim>
					<dim>144</dim>
					<dim>1</dim>
					<dim>1</dim>
				</port>
			</input>
			<output>
				<port id="2" precision="FP32">
					<dim>1</dim>
					<dim>32</dim>
					<dim>56</dim>
					<dim>56</dim>
				</port>
			</output>
		</layer>
		<layer id="165" name="data_add_4511745122" type="Const" version="opset1">
			<data element_type="f32" offset="208704" shape="1, 32, 1, 1" size="128"/>
			<output>
				<port id="0" precision="FP32">
					<dim>1</dim>
					<dim>32</dim>
					<dim>1</dim>
					<dim>1</dim>
				</port>
			</output>
		</layer>
		<layer id="166" name="BatchNormalization_68/variance/Fused_Add_" type="Add" version="opset1">
			<data auto_broadcast="numpy"/>
			<input>
				<port id="0" precision="FP32">
					<dim>1</dim>
					<dim>32</dim>
					<dim>56</dim>
					<dim>56</dim>
				</port>
				<port id="1" precision="FP32">
					<dim>1</dim>
					<dim>32</dim>
					<dim>1</dim>
					<dim>1</dim>
				</port>
			</input>
			<output>
				<port id="2" names="1317" precision="FP32">
					<dim>1</dim>
					<dim>32</dim>
					<dim>56</dim>
					<dim>56</dim>
				</port>
			</output>
		</layer>
		<layer id="167" name="BatchNormalization_70/mean/Fused_Mul__copy" type="Const" version="opset1">
			<data element_type="f32" offset="208832" shape="192, 32, 1, 1" size="24576"/>
			<output>
				<port id="0" names="backbone.module.features.stage3.unit2.conv1.conv.weight" precision="FP32">
					<dim>192</dim>
					<dim>32</dim>
					<dim>1</dim>
					<dim>1</dim>
				</port>
			</output>
		</layer>
		<layer id="168" name="Conv_69" type="Convolution" version="opset1">
			<data auto_pad="explicit" dilations="1, 1" pads_begin="0, 0" pads_end="0, 0" strides="1, 1"/>
			<input>
				<port id="0" precision="FP32">
					<dim>1</dim>
					<dim>32</dim>
					<dim>56</dim>
					<dim>56</dim>
				</port>
				<port id="1" precision="FP32">
					<dim>192</dim>
					<dim>32</dim>
					<dim>1</dim>
					<dim>1</dim>
				</port>
			</input>
			<output>
				<port id="2" precision="FP32">
					<dim>1</dim>
					<dim>192</dim>
					<dim>56</dim>
					<dim>56</dim>
				</port>
			</output>
		</layer>
		<layer id="169" name="data_add_4512545130" type="Const" version="opset1">
			<data element_type="f32" offset="233408" shape="1, 192, 1, 1" size="768"/>
			<output>
				<port id="0" precision="FP32">
					<dim>1</dim>
					<dim>192</dim>
					<dim>1</dim>
					<dim>1</dim>
				</port>
			</output>
		</layer>
		<layer id="170" name="BatchNormalization_70/variance/Fused_Add_" type="Add" version="opset1">
			<data auto_broadcast="numpy"/>
			<input>
				<port id="0" precision="FP32">
					<dim>1</dim>
					<dim>192</dim>
					<dim>56</dim>
					<dim>56</dim>
				</port>
				<port id="1" precision="FP32">
					<dim>1</dim>
					<dim>192</dim>
					<dim>1</dim>
					<dim>1</dim>
				</port>
			</input>
			<output>
				<port id="2" names="1319" precision="FP32">
					<dim>1</dim>
					<dim>192</dim>
					<dim>56</dim>
					<dim>56</dim>
				</port>
			</output>
		</layer>
		<layer id="171" name="Mul_72" type="Swish" version="opset4">
			<input>
				<port id="0" precision="FP32">
					<dim>1</dim>
					<dim>192</dim>
					<dim>56</dim>
					<dim>56</dim>
				</port>
			</input>
			<output>
				<port id="1" names="1321" precision="FP32">
					<dim>1</dim>
					<dim>192</dim>
					<dim>56</dim>
					<dim>56</dim>
				</port>
			</output>
		</layer>
		<layer id="172" name="BatchNormalization_74/mean/Fused_Mul__copy" type="Const" version="opset1">
			<data element_type="f32" offset="234176" shape="192, 1, 1, 5, 5" size="19200"/>
			<output>
				<port id="0" names="backbone.module.features.stage3.unit2.conv2.conv.weight" precision="FP32">
					<dim>192</dim>
					<dim>1</dim>
					<dim>1</dim>
					<dim>5</dim>
					<dim>5</dim>
				</port>
			</output>
		</layer>
		<layer id="173" name="Conv_73" type="GroupConvolution" version="opset1">
			<data auto_pad="explicit" dilations="1, 1" pads_begin="2, 2" pads_end="2, 2" strides="1, 1"/>
			<input>
				<port id="0" precision="FP32">
					<dim>1</dim>
					<dim>192</dim>
					<dim>56</dim>
					<dim>56</dim>
				</port>
				<port id="1" precision="FP32">
					<dim>192</dim>
					<dim>1</dim>
					<dim>1</dim>
					<dim>5</dim>
					<dim>5</dim>
				</port>
			</input>
			<output>
				<port id="2" precision="FP32">
					<dim>1</dim>
					<dim>192</dim>
					<dim>56</dim>
					<dim>56</dim>
				</port>
			</output>
		</layer>
		<layer id="174" name="data_add_4513345138" type="Const" version="opset1">
			<data element_type="f32" offset="253376" shape="1, 192, 1, 1" size="768"/>
			<output>
				<port id="0" precision="FP32">
					<dim>1</dim>
					<dim>192</dim>
					<dim>1</dim>
					<dim>1</dim>
				</port>
			</output>
		</layer>
		<layer id="175" name="BatchNormalization_74/variance/Fused_Add_" type="Add" version="opset1">
			<data auto_broadcast="numpy"/>
			<input>
				<port id="0" precision="FP32">
					<dim>1</dim>
					<dim>192</dim>
					<dim>56</dim>
					<dim>56</dim>
				</port>
				<port id="1" precision="FP32">
					<dim>1</dim>
					<dim>192</dim>
					<dim>1</dim>
					<dim>1</dim>
				</port>
			</input>
			<output>
				<port id="2" names="1323" precision="FP32">
					<dim>1</dim>
					<dim>192</dim>
					<dim>56</dim>
					<dim>56</dim>
				</port>
			</output>
		</layer>
		<layer id="176" name="Mul_76" type="Swish" version="opset4">
			<input>
				<port id="0" precision="FP32">
					<dim>1</dim>
					<dim>192</dim>
					<dim>56</dim>
					<dim>56</dim>
				</port>
			</input>
			<output>
				<port id="1" names="1325" precision="FP32">
					<dim>1</dim>
					<dim>192</dim>
					<dim>56</dim>
					<dim>56</dim>
				</port>
			</output>
		</layer>
		<layer id="177" name="2587" type="Const" version="opset1">
			<data element_type="i64" offset="3672" shape="" size="8"/>
			<output>
				<port id="0" precision="I64"/>
			</output>
		</layer>
		<layer id="178" name="GlobalAveragePool_77/input_rank/shape_of" type="ShapeOf" version="opset3">
			<data output_type="i64"/>
			<input>
				<port id="0" precision="FP32">
					<dim>1</dim>
					<dim>192</dim>
					<dim>56</dim>
					<dim>56</dim>
				</port>
			</input>
			<output>
				<port id="1" precision="I64">
					<dim>4</dim>
				</port>
			</output>
		</layer>
		<layer id="179" name="GlobalAveragePool_77/input_rank/rank_of" type="ShapeOf" version="opset3">
			<data output_type="i64"/>
			<input>
				<port id="0" precision="I64">
					<dim>4</dim>
				</port>
			</input>
			<output>
				<port id="1" precision="I64">
					<dim>1</dim>
				</port>
			</output>
		</layer>
		<layer id="180" name="GlobalAveragePool_77/input_rank/0d_rank_of/value" type="Const" version="opset1">
			<data element_type="i64" offset="3680" shape="1" size="8"/>
			<output>
				<port id="0" precision="I64">
					<dim>1</dim>
				</port>
			</output>
		</layer>
		<layer id="181" name="GlobalAveragePool_77/input_rank" type="Squeeze" version="opset1">
			<input>
				<port id="0" precision="I64">
					<dim>1</dim>
				</port>
				<port id="1" precision="I64">
					<dim>1</dim>
				</port>
			</input>
			<output>
				<port id="2" precision="I64"/>
			</output>
		</layer>
		<layer id="182" name="2589" type="Const" version="opset1">
			<data element_type="i64" offset="3688" shape="" size="8"/>
			<output>
				<port id="0" precision="I64"/>
			</output>
		</layer>
		<layer id="183" name="GlobalAveragePool_77/global_pooling_reduce_axis" type="Range" version="opset4">
			<data output_type="i64"/>
			<input>
				<port id="0" precision="I64"/>
				<port id="1" precision="I64"/>
				<port id="2" precision="I64"/>
			</input>
			<output>
				<port id="3" precision="I64">
					<dim>2</dim>
				</port>
			</output>
		</layer>
		<layer id="184" name="GlobalAveragePool_77/reduce" type="ReduceMean" version="opset1">
			<data keep_dims="true"/>
			<input>
				<port id="0" precision="FP32">
					<dim>1</dim>
					<dim>192</dim>
					<dim>56</dim>
					<dim>56</dim>
				</port>
				<port id="1" precision="I64">
					<dim>2</dim>
				</port>
			</input>
			<output>
				<port id="2" names="1326" precision="FP32">
					<dim>1</dim>
					<dim>192</dim>
					<dim>1</dim>
					<dim>1</dim>
				</port>
			</output>
		</layer>
		<layer id="185" name="backbone.module.features.stage3.unit2.se.conv1.weight" type="Const" version="opset1">
			<data element_type="f32" offset="254144" shape="8, 192, 1, 1" size="6144"/>
			<output>
				<port id="0" names="backbone.module.features.stage3.unit2.se.conv1.weight" precision="FP32">
					<dim>8</dim>
					<dim>192</dim>
					<dim>1</dim>
					<dim>1</dim>
				</port>
			</output>
		</layer>
		<layer id="186" name="Conv_78/WithoutBiases" type="Convolution" version="opset1">
			<data auto_pad="explicit" dilations="1, 1" pads_begin="0, 0" pads_end="0, 0" strides="1, 1"/>
			<input>
				<port id="0" precision="FP32">
					<dim>1</dim>
					<dim>192</dim>
					<dim>1</dim>
					<dim>1</dim>
				</port>
				<port id="1" precision="FP32">
					<dim>8</dim>
					<dim>192</dim>
					<dim>1</dim>
					<dim>1</dim>
				</port>
			</input>
			<output>
				<port id="2" precision="FP32">
					<dim>1</dim>
					<dim>8</dim>
					<dim>1</dim>
					<dim>1</dim>
				</port>
			</output>
		</layer>
		<layer id="187" name="Conv_78/Dims25529" type="Const" version="opset1">
			<data element_type="f32" offset="260288" shape="1, 8, 1, 1" size="32"/>
			<output>
				<port id="0" precision="FP32">
					<dim>1</dim>
					<dim>8</dim>
					<dim>1</dim>
					<dim>1</dim>
				</port>
			</output>
		</layer>
		<layer id="188" name="Conv_78" type="Add" version="opset1">
			<data auto_broadcast="numpy"/>
			<input>
				<port id="0" precision="FP32">
					<dim>1</dim>
					<dim>8</dim>
					<dim>1</dim>
					<dim>1</dim>
				</port>
				<port id="1" precision="FP32">
					<dim>1</dim>
					<dim>8</dim>
					<dim>1</dim>
					<dim>1</dim>
				</port>
			</input>
			<output>
				<port id="2" names="1327" precision="FP32">
					<dim>1</dim>
					<dim>8</dim>
					<dim>1</dim>
					<dim>1</dim>
				</port>
			</output>
		</layer>
		<layer id="189" name="Mul_80" type="Swish" version="opset4">
			<input>
				<port id="0" precision="FP32">
					<dim>1</dim>
					<dim>8</dim>
					<dim>1</dim>
					<dim>1</dim>
				</port>
			</input>
			<output>
				<port id="1" names="1329" precision="FP32">
					<dim>1</dim>
					<dim>8</dim>
					<dim>1</dim>
					<dim>1</dim>
				</port>
			</output>
		</layer>
		<layer id="190" name="backbone.module.features.stage3.unit2.se.conv2.weight" type="Const" version="opset1">
			<data element_type="f32" offset="260320" shape="192, 8, 1, 1" size="6144"/>
			<output>
				<port id="0" names="backbone.module.features.stage3.unit2.se.conv2.weight" precision="FP32">
					<dim>192</dim>
					<dim>8</dim>
					<dim>1</dim>
					<dim>1</dim>
				</port>
			</output>
		</layer>
		<layer id="191" name="Conv_81/WithoutBiases" type="Convolution" version="opset1">
			<data auto_pad="explicit" dilations="1, 1" pads_begin="0, 0" pads_end="0, 0" strides="1, 1"/>
			<input>
				<port id="0" precision="FP32">
					<dim>1</dim>
					<dim>8</dim>
					<dim>1</dim>
					<dim>1</dim>
				</port>
				<port id="1" precision="FP32">
					<dim>192</dim>
					<dim>8</dim>
					<dim>1</dim>
					<dim>1</dim>
				</port>
			</input>
			<output>
				<port id="2" precision="FP32">
					<dim>1</dim>
					<dim>192</dim>
					<dim>1</dim>
					<dim>1</dim>
				</port>
			</output>
		</layer>
		<layer id="192" name="Conv_81/Dims25391" type="Const" version="opset1">
			<data element_type="f32" offset="266464" shape="1, 192, 1, 1" size="768"/>
			<output>
				<port id="0" precision="FP32">
					<dim>1</dim>
					<dim>192</dim>
					<dim>1</dim>
					<dim>1</dim>
				</port>
			</output>
		</layer>
		<layer id="193" name="Conv_81" type="Add" version="opset1">
			<data auto_broadcast="numpy"/>
			<input>
				<port id="0" precision="FP32">
					<dim>1</dim>
					<dim>192</dim>
					<dim>1</dim>
					<dim>1</dim>
				</port>
				<port id="1" precision="FP32">
					<dim>1</dim>
					<dim>192</dim>
					<dim>1</dim>
					<dim>1</dim>
				</port>
			</input>
			<output>
				<port id="2" names="1330" precision="FP32">
					<dim>1</dim>
					<dim>192</dim>
					<dim>1</dim>
					<dim>1</dim>
				</port>
			</output>
		</layer>
		<layer id="194" name="Sigmoid_82" type="Sigmoid" version="opset1">
			<input>
				<port id="0" precision="FP32">
					<dim>1</dim>
					<dim>192</dim>
					<dim>1</dim>
					<dim>1</dim>
				</port>
			</input>
			<output>
				<port id="1" names="1331" precision="FP32">
					<dim>1</dim>
					<dim>192</dim>
					<dim>1</dim>
					<dim>1</dim>
				</port>
			</output>
		</layer>
		<layer id="195" name="Mul_83" type="Multiply" version="opset1">
			<data auto_broadcast="numpy"/>
			<input>
				<port id="0" precision="FP32">
					<dim>1</dim>
					<dim>192</dim>
					<dim>56</dim>
					<dim>56</dim>
				</port>
				<port id="1" precision="FP32">
					<dim>1</dim>
					<dim>192</dim>
					<dim>1</dim>
					<dim>1</dim>
				</port>
			</input>
			<output>
				<port id="2" names="1332" precision="FP32">
					<dim>1</dim>
					<dim>192</dim>
					<dim>56</dim>
					<dim>56</dim>
				</port>
			</output>
		</layer>
		<layer id="196" name="BatchNormalization_85/mean/Fused_Mul__copy" type="Const" version="opset1">
			<data element_type="f32" offset="267232" shape="32, 192, 1, 1" size="24576"/>
			<output>
				<port id="0" names="backbone.module.features.stage3.unit2.conv3.conv.weight" precision="FP32">
					<dim>32</dim>
					<dim>192</dim>
					<dim>1</dim>
					<dim>1</dim>
				</port>
			</output>
		</layer>
		<layer id="197" name="Conv_84" type="Convolution" version="opset1">
			<data auto_pad="explicit" dilations="1, 1" pads_begin="0, 0" pads_end="0, 0" strides="1, 1"/>
			<input>
				<port id="0" precision="FP32">
					<dim>1</dim>
					<dim>192</dim>
					<dim>56</dim>
					<dim>56</dim>
				</port>
				<port id="1" precision="FP32">
					<dim>32</dim>
					<dim>192</dim>
					<dim>1</dim>
					<dim>1</dim>
				</port>
			</input>
			<output>
				<port id="2" precision="FP32">
					<dim>1</dim>
					<dim>32</dim>
					<dim>56</dim>
					<dim>56</dim>
				</port>
			</output>
		</layer>
		<layer id="198" name="data_add_4514145146" type="Const" version="opset1">
			<data element_type="f32" offset="291808" shape="1, 32, 1, 1" size="128"/>
			<output>
				<port id="0" precision="FP32">
					<dim>1</dim>
					<dim>32</dim>
					<dim>1</dim>
					<dim>1</dim>
				</port>
			</output>
		</layer>
		<layer id="199" name="BatchNormalization_85/variance/Fused_Add_" type="Add" version="opset1">
			<data auto_broadcast="numpy"/>
			<input>
				<port id="0" precision="FP32">
					<dim>1</dim>
					<dim>32</dim>
					<dim>56</dim>
					<dim>56</dim>
				</port>
				<port id="1" precision="FP32">
					<dim>1</dim>
					<dim>32</dim>
					<dim>1</dim>
					<dim>1</dim>
				</port>
			</input>
			<output>
				<port id="2" names="1334" precision="FP32">
					<dim>1</dim>
					<dim>32</dim>
					<dim>56</dim>
					<dim>56</dim>
				</port>
			</output>
		</layer>
		<layer id="200" name="Add_86" type="Add" version="opset1">
			<data auto_broadcast="numpy"/>
			<input>
				<port id="0" precision="FP32">
					<dim>1</dim>
					<dim>32</dim>
					<dim>56</dim>
					<dim>56</dim>
				</port>
				<port id="1" precision="FP32">
					<dim>1</dim>
					<dim>32</dim>
					<dim>56</dim>
					<dim>56</dim>
				</port>
			</input>
			<output>
				<port id="2" names="1335" precision="FP32">
					<dim>1</dim>
					<dim>32</dim>
					<dim>56</dim>
					<dim>56</dim>
				</port>
			</output>
		</layer>
		<layer id="201" name="BatchNormalization_267/mean/Fused_Mul__copy" type="Const" version="opset1">
			<data element_type="f32" offset="291936" shape="42, 32, 3, 3" size="48384"/>
			<output>
				<port id="0" names="backbone.module.transition.1.0.weight" precision="FP32">
					<dim>42</dim>
					<dim>32</dim>
					<dim>3</dim>
					<dim>3</dim>
				</port>
			</output>
		</layer>
		<layer id="202" name="Conv_266" type="Convolution" version="opset1">
			<data auto_pad="explicit" dilations="1, 1" pads_begin="1, 1" pads_end="1, 1" strides="1, 1"/>
			<input>
				<port id="0" precision="FP32">
					<dim>1</dim>
					<dim>32</dim>
					<dim>56</dim>
					<dim>56</dim>
				</port>
				<port id="1" precision="FP32">
					<dim>42</dim>
					<dim>32</dim>
					<dim>3</dim>
					<dim>3</dim>
				</port>
			</input>
			<output>
				<port id="2" precision="FP32">
					<dim>1</dim>
					<dim>42</dim>
					<dim>56</dim>
					<dim>56</dim>
				</port>
			</output>
		</layer>
		<layer id="203" name="data_add_4514945154" type="Const" version="opset1">
			<data element_type="f32" offset="340320" shape="1, 42, 1, 1" size="168"/>
			<output>
				<port id="0" precision="FP32">
					<dim>1</dim>
					<dim>42</dim>
					<dim>1</dim>
					<dim>1</dim>
				</port>
			</output>
		</layer>
		<layer id="204" name="BatchNormalization_267/variance/Fused_Add_" type="Add" version="opset1">
			<data auto_broadcast="numpy"/>
			<input>
				<port id="0" precision="FP32">
					<dim>1</dim>
					<dim>42</dim>
					<dim>56</dim>
					<dim>56</dim>
				</port>
				<port id="1" precision="FP32">
					<dim>1</dim>
					<dim>42</dim>
					<dim>1</dim>
					<dim>1</dim>
				</port>
			</input>
			<output>
				<port id="2" names="1516" precision="FP32">
					<dim>1</dim>
					<dim>42</dim>
					<dim>56</dim>
					<dim>56</dim>
				</port>
			</output>
		</layer>
		<layer id="205" name="Relu_268" type="ReLU" version="opset1">
			<input>
				<port id="0" precision="FP32">
					<dim>1</dim>
					<dim>42</dim>
					<dim>56</dim>
					<dim>56</dim>
				</port>
			</input>
			<output>
				<port id="1" names="1517" precision="FP32">
					<dim>1</dim>
					<dim>42</dim>
					<dim>56</dim>
					<dim>56</dim>
				</port>
			</output>
		</layer>
		<layer id="206" name="BatchNormalization_290/mean/Fused_Mul__copy" type="Const" version="opset1">
			<data element_type="f32" offset="340488" shape="42, 42, 3, 3" size="63504"/>
			<output>
				<port id="0" names="backbone.module.stages.0.0.branches.1.0.conv1.weight" precision="FP32">
					<dim>42</dim>
					<dim>42</dim>
					<dim>3</dim>
					<dim>3</dim>
				</port>
			</output>
		</layer>
		<layer id="207" name="Conv_289" type="Convolution" version="opset1">
			<data auto_pad="explicit" dilations="1, 1" pads_begin="1, 1" pads_end="1, 1" strides="1, 1"/>
			<input>
				<port id="0" precision="FP32">
					<dim>1</dim>
					<dim>42</dim>
					<dim>56</dim>
					<dim>56</dim>
				</port>
				<port id="1" precision="FP32">
					<dim>42</dim>
					<dim>42</dim>
					<dim>3</dim>
					<dim>3</dim>
				</port>
			</input>
			<output>
				<port id="2" precision="FP32">
					<dim>1</dim>
					<dim>42</dim>
					<dim>56</dim>
					<dim>56</dim>
				</port>
			</output>
		</layer>
		<layer id="208" name="data_add_4515745162" type="Const" version="opset1">
			<data element_type="f32" offset="403992" shape="1, 42, 1, 1" size="168"/>
			<output>
				<port id="0" precision="FP32">
					<dim>1</dim>
					<dim>42</dim>
					<dim>1</dim>
					<dim>1</dim>
				</port>
			</output>
		</layer>
		<layer id="209" name="BatchNormalization_290/variance/Fused_Add_" type="Add" version="opset1">
			<data auto_broadcast="numpy"/>
			<input>
				<port id="0" precision="FP32">
					<dim>1</dim>
					<dim>42</dim>
					<dim>56</dim>
					<dim>56</dim>
				</port>
				<port id="1" precision="FP32">
					<dim>1</dim>
					<dim>42</dim>
					<dim>1</dim>
					<dim>1</dim>
				</port>
			</input>
			<output>
				<port id="2" names="1539" precision="FP32">
					<dim>1</dim>
					<dim>42</dim>
					<dim>56</dim>
					<dim>56</dim>
				</port>
			</output>
		</layer>
		<layer id="210" name="Relu_291" type="ReLU" version="opset1">
			<input>
				<port id="0" precision="FP32">
					<dim>1</dim>
					<dim>42</dim>
					<dim>56</dim>
					<dim>56</dim>
				</port>
			</input>
			<output>
				<port id="1" names="1540" precision="FP32">
					<dim>1</dim>
					<dim>42</dim>
					<dim>56</dim>
					<dim>56</dim>
				</port>
			</output>
		</layer>
		<layer id="211" name="BatchNormalization_293/mean/Fused_Mul__copy" type="Const" version="opset1">
			<data element_type="f32" offset="404160" shape="42, 42, 3, 3" size="63504"/>
			<output>
				<port id="0" names="backbone.module.stages.0.0.branches.1.0.conv2.weight" precision="FP32">
					<dim>42</dim>
					<dim>42</dim>
					<dim>3</dim>
					<dim>3</dim>
				</port>
			</output>
		</layer>
		<layer id="212" name="Conv_292" type="Convolution" version="opset1">
			<data auto_pad="explicit" dilations="1, 1" pads_begin="1, 1" pads_end="1, 1" strides="1, 1"/>
			<input>
				<port id="0" precision="FP32">
					<dim>1</dim>
					<dim>42</dim>
					<dim>56</dim>
					<dim>56</dim>
				</port>
				<port id="1" precision="FP32">
					<dim>42</dim>
					<dim>42</dim>
					<dim>3</dim>
					<dim>3</dim>
				</port>
			</input>
			<output>
				<port id="2" precision="FP32">
					<dim>1</dim>
					<dim>42</dim>
					<dim>56</dim>
					<dim>56</dim>
				</port>
			</output>
		</layer>
		<layer id="213" name="data_add_4516545170" type="Const" version="opset1">
			<data element_type="f32" offset="467664" shape="1, 42, 1, 1" size="168"/>
			<output>
				<port id="0" precision="FP32">
					<dim>1</dim>
					<dim>42</dim>
					<dim>1</dim>
					<dim>1</dim>
				</port>
			</output>
		</layer>
		<layer id="214" name="BatchNormalization_293/variance/Fused_Add_" type="Add" version="opset1">
			<data auto_broadcast="numpy"/>
			<input>
				<port id="0" precision="FP32">
					<dim>1</dim>
					<dim>42</dim>
					<dim>56</dim>
					<dim>56</dim>
				</port>
				<port id="1" precision="FP32">
					<dim>1</dim>
					<dim>42</dim>
					<dim>1</dim>
					<dim>1</dim>
				</port>
			</input>
			<output>
				<port id="2" names="1542" precision="FP32">
					<dim>1</dim>
					<dim>42</dim>
					<dim>56</dim>
					<dim>56</dim>
				</port>
			</output>
		</layer>
		<layer id="215" name="Add_294" type="Add" version="opset1">
			<data auto_broadcast="numpy"/>
			<input>
				<port id="0" precision="FP32">
					<dim>1</dim>
					<dim>42</dim>
					<dim>56</dim>
					<dim>56</dim>
				</port>
				<port id="1" precision="FP32">
					<dim>1</dim>
					<dim>42</dim>
					<dim>56</dim>
					<dim>56</dim>
				</port>
			</input>
			<output>
				<port id="2" names="1543" precision="FP32">
					<dim>1</dim>
					<dim>42</dim>
					<dim>56</dim>
					<dim>56</dim>
				</port>
			</output>
		</layer>
		<layer id="216" name="Relu_295" type="ReLU" version="opset1">
			<input>
				<port id="0" precision="FP32">
					<dim>1</dim>
					<dim>42</dim>
					<dim>56</dim>
					<dim>56</dim>
				</port>
			</input>
			<output>
				<port id="1" names="1544" precision="FP32">
					<dim>1</dim>
					<dim>42</dim>
					<dim>56</dim>
					<dim>56</dim>
				</port>
			</output>
		</layer>
		<layer id="217" name="BatchNormalization_297/mean/Fused_Mul__copy" type="Const" version="opset1">
			<data element_type="f32" offset="467832" shape="42, 42, 3, 3" size="63504"/>
			<output>
				<port id="0" names="backbone.module.stages.0.0.branches.1.1.conv1.weight" precision="FP32">
					<dim>42</dim>
					<dim>42</dim>
					<dim>3</dim>
					<dim>3</dim>
				</port>
			</output>
		</layer>
		<layer id="218" name="Conv_296" type="Convolution" version="opset1">
			<data auto_pad="explicit" dilations="1, 1" pads_begin="1, 1" pads_end="1, 1" strides="1, 1"/>
			<input>
				<port id="0" precision="FP32">
					<dim>1</dim>
					<dim>42</dim>
					<dim>56</dim>
					<dim>56</dim>
				</port>
				<port id="1" precision="FP32">
					<dim>42</dim>
					<dim>42</dim>
					<dim>3</dim>
					<dim>3</dim>
				</port>
			</input>
			<output>
				<port id="2" precision="FP32">
					<dim>1</dim>
					<dim>42</dim>
					<dim>56</dim>
					<dim>56</dim>
				</port>
			</output>
		</layer>
		<layer id="219" name="data_add_4517345178" type="Const" version="opset1">
			<data element_type="f32" offset="531336" shape="1, 42, 1, 1" size="168"/>
			<output>
				<port id="0" precision="FP32">
					<dim>1</dim>
					<dim>42</dim>
					<dim>1</dim>
					<dim>1</dim>
				</port>
			</output>
		</layer>
		<layer id="220" name="BatchNormalization_297/variance/Fused_Add_" type="Add" version="opset1">
			<data auto_broadcast="numpy"/>
			<input>
				<port id="0" precision="FP32">
					<dim>1</dim>
					<dim>42</dim>
					<dim>56</dim>
					<dim>56</dim>
				</port>
				<port id="1" precision="FP32">
					<dim>1</dim>
					<dim>42</dim>
					<dim>1</dim>
					<dim>1</dim>
				</port>
			</input>
			<output>
				<port id="2" names="1546" precision="FP32">
					<dim>1</dim>
					<dim>42</dim>
					<dim>56</dim>
					<dim>56</dim>
				</port>
			</output>
		</layer>
		<layer id="221" name="Relu_298" type="ReLU" version="opset1">
			<input>
				<port id="0" precision="FP32">
					<dim>1</dim>
					<dim>42</dim>
					<dim>56</dim>
					<dim>56</dim>
				</port>
			</input>
			<output>
				<port id="1" names="1547" precision="FP32">
					<dim>1</dim>
					<dim>42</dim>
					<dim>56</dim>
					<dim>56</dim>
				</port>
			</output>
		</layer>
		<layer id="222" name="BatchNormalization_300/mean/Fused_Mul__copy" type="Const" version="opset1">
			<data element_type="f32" offset="531504" shape="42, 42, 3, 3" size="63504"/>
			<output>
				<port id="0" names="backbone.module.stages.0.0.branches.1.1.conv2.weight" precision="FP32">
					<dim>42</dim>
					<dim>42</dim>
					<dim>3</dim>
					<dim>3</dim>
				</port>
			</output>
		</layer>
		<layer id="223" name="Conv_299" type="Convolution" version="opset1">
			<data auto_pad="explicit" dilations="1, 1" pads_begin="1, 1" pads_end="1, 1" strides="1, 1"/>
			<input>
				<port id="0" precision="FP32">
					<dim>1</dim>
					<dim>42</dim>
					<dim>56</dim>
					<dim>56</dim>
				</port>
				<port id="1" precision="FP32">
					<dim>42</dim>
					<dim>42</dim>
					<dim>3</dim>
					<dim>3</dim>
				</port>
			</input>
			<output>
				<port id="2" precision="FP32">
					<dim>1</dim>
					<dim>42</dim>
					<dim>56</dim>
					<dim>56</dim>
				</port>
			</output>
		</layer>
		<layer id="224" name="data_add_4518145186" type="Const" version="opset1">
			<data element_type="f32" offset="595008" shape="1, 42, 1, 1" size="168"/>
			<output>
				<port id="0" precision="FP32">
					<dim>1</dim>
					<dim>42</dim>
					<dim>1</dim>
					<dim>1</dim>
				</port>
			</output>
		</layer>
		<layer id="225" name="BatchNormalization_300/variance/Fused_Add_" type="Add" version="opset1">
			<data auto_broadcast="numpy"/>
			<input>
				<port id="0" precision="FP32">
					<dim>1</dim>
					<dim>42</dim>
					<dim>56</dim>
					<dim>56</dim>
				</port>
				<port id="1" precision="FP32">
					<dim>1</dim>
					<dim>42</dim>
					<dim>1</dim>
					<dim>1</dim>
				</port>
			</input>
			<output>
				<port id="2" names="1549" precision="FP32">
					<dim>1</dim>
					<dim>42</dim>
					<dim>56</dim>
					<dim>56</dim>
				</port>
			</output>
		</layer>
		<layer id="226" name="Add_301" type="Add" version="opset1">
			<data auto_broadcast="numpy"/>
			<input>
				<port id="0" precision="FP32">
					<dim>1</dim>
					<dim>42</dim>
					<dim>56</dim>
					<dim>56</dim>
				</port>
				<port id="1" precision="FP32">
					<dim>1</dim>
					<dim>42</dim>
					<dim>56</dim>
					<dim>56</dim>
				</port>
			</input>
			<output>
				<port id="2" names="1550" precision="FP32">
					<dim>1</dim>
					<dim>42</dim>
					<dim>56</dim>
					<dim>56</dim>
				</port>
			</output>
		</layer>
		<layer id="227" name="Relu_302" type="ReLU" version="opset1">
			<input>
				<port id="0" precision="FP32">
					<dim>1</dim>
					<dim>42</dim>
					<dim>56</dim>
					<dim>56</dim>
				</port>
			</input>
			<output>
				<port id="1" names="1551" precision="FP32">
					<dim>1</dim>
					<dim>42</dim>
					<dim>56</dim>
					<dim>56</dim>
				</port>
			</output>
		</layer>
		<layer id="228" name="BatchNormalization_306/mean/Fused_Mul__copy" type="Const" version="opset1">
			<data element_type="f32" offset="595176" shape="21, 42, 1, 1" size="3528"/>
			<output>
				<port id="0" names="backbone.module.stages.0.0.fuse_layers.0.1.0.weight" precision="FP32">
					<dim>21</dim>
					<dim>42</dim>
					<dim>1</dim>
					<dim>1</dim>
				</port>
			</output>
		</layer>
		<layer id="229" name="Conv_305" type="Convolution" version="opset1">
			<data auto_pad="explicit" dilations="1, 1" pads_begin="0, 0" pads_end="0, 0" strides="1, 1"/>
			<input>
				<port id="0" precision="FP32">
					<dim>1</dim>
					<dim>42</dim>
					<dim>56</dim>
					<dim>56</dim>
				</port>
				<port id="1" precision="FP32">
					<dim>21</dim>
					<dim>42</dim>
					<dim>1</dim>
					<dim>1</dim>
				</port>
			</input>
			<output>
				<port id="2" precision="FP32">
					<dim>1</dim>
					<dim>21</dim>
					<dim>56</dim>
					<dim>56</dim>
				</port>
			</output>
		</layer>
		<layer id="230" name="data_add_4523745242" type="Const" version="opset1">
			<data element_type="f32" offset="598704" shape="1, 21, 1, 1" size="84"/>
			<output>
				<port id="0" precision="FP32">
					<dim>1</dim>
					<dim>21</dim>
					<dim>1</dim>
					<dim>1</dim>
				</port>
			</output>
		</layer>
		<layer id="231" name="BatchNormalization_306/variance/Fused_Add_" type="Add" version="opset1">
			<data auto_broadcast="numpy"/>
			<input>
				<port id="0" precision="FP32">
					<dim>1</dim>
					<dim>21</dim>
					<dim>56</dim>
					<dim>56</dim>
				</port>
				<port id="1" precision="FP32">
					<dim>1</dim>
					<dim>21</dim>
					<dim>1</dim>
					<dim>1</dim>
				</port>
			</input>
			<output>
				<port id="2" names="1555" precision="FP32">
					<dim>1</dim>
					<dim>21</dim>
					<dim>56</dim>
					<dim>56</dim>
				</port>
			</output>
		</layer>
		<layer id="232" name="Shape_327" type="ShapeOf" version="opset3">
			<data output_type="i64"/>
			<input>
				<port id="0" precision="FP32">
					<dim>1</dim>
					<dim>21</dim>
					<dim>56</dim>
					<dim>56</dim>
				</port>
			</input>
			<output>
				<port id="1" names="1576" precision="I64">
					<dim>4</dim>
				</port>
			</output>
		</layer>
		<layer id="233" name="Slice_331/Concat2707290025" type="Const" version="opset1">
			<data element_type="i64" offset="3680" shape="1" size="8"/>
			<output>
				<port id="0" precision="I64">
					<dim>1</dim>
				</port>
			</output>
		</layer>
		<layer id="234" name="Slice_331/Concat270622707388855" type="Const" version="opset1">
			<data element_type="i64" offset="3672" shape="1" size="8"/>
			<output>
				<port id="0" precision="I64">
					<dim>1</dim>
				</port>
			</output>
		</layer>
		<layer id="235" name="Slice_331/Strides2707489818" type="Const" version="opset1">
			<data element_type="i64" offset="3688" shape="1" size="8"/>
			<output>
				<port id="0" precision="I64">
					<dim>1</dim>
				</port>
			</output>
		</layer>
		<layer id="236" name="Slice_331" type="StridedSlice" version="opset1">
			<data begin_mask="0" ellipsis_mask="0" end_mask="0" new_axis_mask="0" shrink_axis_mask="0"/>
			<input>
				<port id="0" precision="I64">
					<dim>4</dim>
				</port>
				<port id="1" precision="I64">
					<dim>1</dim>
				</port>
				<port id="2" precision="I64">
					<dim>1</dim>
				</port>
				<port id="3" precision="I64">
					<dim>1</dim>
				</port>
			</input>
			<output>
				<port id="4" names="1580" precision="I64">
					<dim>2</dim>
				</port>
			</output>
		</layer>
		<layer id="237" name="Shape_307" type="ShapeOf" version="opset3">
			<data output_type="i64"/>
			<input>
				<port id="0" precision="FP32">
					<dim>1</dim>
					<dim>21</dim>
					<dim>56</dim>
					<dim>56</dim>
				</port>
			</input>
			<output>
				<port id="1" names="1556" precision="I64">
					<dim>4</dim>
				</port>
			</output>
		</layer>
		<layer id="238" name="Constant_308" type="Const" version="opset1">
			<data element_type="i32" offset="598788" shape="" size="4"/>
			<output>
				<port id="0" names="1557" precision="I32"/>
			</output>
		</layer>
		<layer id="239" name="Gather_309/axis" type="Const" version="opset1">
			<data element_type="i64" offset="3680" shape="" size="8"/>
			<output>
				<port id="0" precision="I64"/>
			</output>
		</layer>
		<layer id="240" name="Gather_3092746" type="Gather" version="opset7">
			<data batch_dims="0"/>
			<input>
				<port id="0" precision="I64">
					<dim>4</dim>
				</port>
				<port id="1" precision="I32"/>
				<port id="2" precision="I64"/>
			</input>
			<output>
				<port id="3" names="1558" precision="I64"/>
			</output>
		</layer>
		<layer id="241" name="Cast_310" type="Convert" version="opset1">
			<data destination_type="f32"/>
			<input>
				<port id="0" precision="I64"/>
			</input>
			<output>
				<port id="1" names="1559" precision="FP32"/>
			</output>
		</layer>
		<layer id="242" name="Constant_311" type="Const" version="opset1">
			<data element_type="f32" offset="598792" shape="" size="4"/>
			<output>
				<port id="0" names="1560" precision="FP32"/>
			</output>
		</layer>
		<layer id="243" name="Mul_312" type="Multiply" version="opset1">
			<data auto_broadcast="numpy"/>
			<input>
				<port id="0" precision="FP32"/>
				<port id="1" precision="FP32"/>
			</input>
			<output>
				<port id="2" names="1561,1562" precision="FP32"/>
			</output>
		</layer>
		<layer id="244" name="Floor_314" type="Floor" version="opset1">
			<input>
				<port id="0" precision="FP32"/>
			</input>
			<output>
				<port id="1" names="1563" precision="FP32"/>
			</output>
		</layer>
		<layer id="245" name="Unsqueeze_323/Dims" type="Const" version="opset1">
			<data element_type="i64" offset="3680" shape="1" size="8"/>
			<output>
				<port id="0" precision="I64">
					<dim>1</dim>
				</port>
			</output>
		</layer>
		<layer id="246" name="Unsqueeze_323/Unsqueeze" type="Unsqueeze" version="opset1">
			<input>
				<port id="0" precision="FP32"/>
				<port id="1" precision="I64">
					<dim>1</dim>
				</port>
			</input>
			<output>
				<port id="2" names="1572" precision="FP32">
					<dim>1</dim>
				</port>
			</output>
		</layer>
		<layer id="247" name="Shape_315" type="ShapeOf" version="opset3">
			<data output_type="i64"/>
			<input>
				<port id="0" precision="FP32">
					<dim>1</dim>
					<dim>21</dim>
					<dim>56</dim>
					<dim>56</dim>
				</port>
			</input>
			<output>
				<port id="1" names="1564" precision="I64">
					<dim>4</dim>
				</port>
			</output>
		</layer>
		<layer id="248" name="Constant_316" type="Const" version="opset1">
			<data element_type="i32" offset="598796" shape="" size="4"/>
			<output>
				<port id="0" names="1565" precision="I32"/>
			</output>
		</layer>
		<layer id="249" name="Gather_317/axis" type="Const" version="opset1">
			<data element_type="i64" offset="3680" shape="" size="8"/>
			<output>
				<port id="0" precision="I64"/>
			</output>
		</layer>
		<layer id="250" name="Gather_3172736" type="Gather" version="opset7">
			<data batch_dims="0"/>
			<input>
				<port id="0" precision="I64">
					<dim>4</dim>
				</port>
				<port id="1" precision="I32"/>
				<port id="2" precision="I64"/>
			</input>
			<output>
				<port id="3" names="1566" precision="I64"/>
			</output>
		</layer>
		<layer id="251" name="Cast_318" type="Convert" version="opset1">
			<data destination_type="f32"/>
			<input>
				<port id="0" precision="I64"/>
			</input>
			<output>
				<port id="1" names="1567" precision="FP32"/>
			</output>
		</layer>
		<layer id="252" name="Constant_319" type="Const" version="opset1">
			<data element_type="f32" offset="598792" shape="" size="4"/>
			<output>
				<port id="0" names="1568" precision="FP32"/>
			</output>
		</layer>
		<layer id="253" name="Mul_320" type="Multiply" version="opset1">
			<data auto_broadcast="numpy"/>
			<input>
				<port id="0" precision="FP32"/>
				<port id="1" precision="FP32"/>
			</input>
			<output>
				<port id="2" names="1569,1570" precision="FP32"/>
			</output>
		</layer>
		<layer id="254" name="Floor_322" type="Floor" version="opset1">
			<input>
				<port id="0" precision="FP32"/>
			</input>
			<output>
				<port id="1" names="1571" precision="FP32"/>
			</output>
		</layer>
		<layer id="255" name="Unsqueeze_324/Dims" type="Const" version="opset1">
			<data element_type="i64" offset="3680" shape="1" size="8"/>
			<output>
				<port id="0" precision="I64">
					<dim>1</dim>
				</port>
			</output>
		</layer>
		<layer id="256" name="Unsqueeze_324/Unsqueeze" type="Unsqueeze" version="opset1">
			<input>
				<port id="0" precision="FP32"/>
				<port id="1" precision="I64">
					<dim>1</dim>
				</port>
			</input>
			<output>
				<port id="2" names="1573" precision="FP32">
					<dim>1</dim>
				</port>
			</output>
		</layer>
		<layer id="257" name="Concat_325" type="Concat" version="opset1">
			<data axis="0"/>
			<input>
				<port id="0" precision="FP32">
					<dim>1</dim>
				</port>
				<port id="1" precision="FP32">
					<dim>1</dim>
				</port>
			</input>
			<output>
				<port id="2" names="1574" precision="FP32">
					<dim>2</dim>
				</port>
			</output>
		</layer>
		<layer id="258" name="Cast_332" type="Convert" version="opset1">
			<data destination_type="i64"/>
			<input>
				<port id="0" precision="FP32">
					<dim>2</dim>
				</port>
			</input>
			<output>
				<port id="1" names="1581" precision="I64">
					<dim>2</dim>
				</port>
			</output>
		</layer>
		<layer id="259" name="Concat_333" type="Concat" version="opset1">
			<data axis="0"/>
			<input>
				<port id="0" precision="I64">
					<dim>2</dim>
				</port>
				<port id="1" precision="I64">
					<dim>2</dim>
				</port>
			</input>
			<output>
				<port id="2" names="1582" precision="I64">
					<dim>4</dim>
				</port>
			</output>
		</layer>
		<layer id="260" name="Resize_335/StridedSlice_sizes_input_port_1/value2013289098" type="Const" version="opset1">
			<data element_type="i64" offset="3672" shape="1" size="8"/>
			<output>
				<port id="0" precision="I64">
					<dim>1</dim>
				</port>
			</output>
		</layer>
		<layer id="261" name="Resize_335/StridedSlice_sizes_input_port_2/value2013488741" type="Const" version="opset1">
			<data element_type="i64" offset="598800" shape="1" size="8"/>
			<output>
				<port id="0" precision="I64">
					<dim>1</dim>
				</port>
			</output>
		</layer>
		<layer id="262" name="Resize_335/StridedSlice_sizes_input_port_3/value2013690499" type="Const" version="opset1">
			<data element_type="i64" offset="3688" shape="1" size="8"/>
			<output>
				<port id="0" precision="I64">
					<dim>1</dim>
				</port>
			</output>
		</layer>
		<layer id="263" name="Resize_335/StridedSlice_sizes" type="StridedSlice" version="opset1">
			<data begin_mask="0" ellipsis_mask="0" end_mask="0" new_axis_mask="0" shrink_axis_mask="0"/>
			<input>
				<port id="0" precision="I64">
					<dim>4</dim>
				</port>
				<port id="1" precision="I64">
					<dim>1</dim>
				</port>
				<port id="2" precision="I64">
					<dim>1</dim>
				</port>
				<port id="3" precision="I64">
					<dim>1</dim>
				</port>
			</input>
			<output>
				<port id="4" precision="I64">
					<dim>2</dim>
				</port>
			</output>
		</layer>
		<layer id="264" name="20152" type="Convert" version="opset1">
			<data destination_type="f32"/>
			<input>
				<port id="0" precision="I64">
					<dim>4</dim>
				</port>
			</input>
			<output>
				<port id="1" precision="FP32">
					<dim>4</dim>
				</port>
			</output>
		</layer>
		<layer id="265" name="Resize_335/ShapeOf" type="ShapeOf" version="opset3">
			<data output_type="i64"/>
			<input>
				<port id="0" precision="FP32">
					<dim>1</dim>
					<dim>21</dim>
					<dim>56</dim>
					<dim>56</dim>
				</port>
			</input>
			<output>
				<port id="1" precision="I64">
					<dim>4</dim>
				</port>
			</output>
		</layer>
		<layer id="266" name="20151" type="Convert" version="opset1">
			<data destination_type="f32"/>
			<input>
				<port id="0" precision="I64">
					<dim>4</dim>
				</port>
			</input>
			<output>
				<port id="1" precision="FP32">
					<dim>4</dim>
				</port>
			</output>
		</layer>
		<layer id="267" name="Resize_335/Div" type="Divide" version="opset1">
			<data auto_broadcast="numpy" m_pythondiv="true"/>
			<input>
				<port id="0" precision="FP32">
					<dim>4</dim>
				</port>
				<port id="1" precision="FP32">
					<dim>4</dim>
				</port>
			</input>
			<output>
				<port id="2" precision="FP32">
					<dim>4</dim>
				</port>
			</output>
		</layer>
		<layer id="268" name="Resize_335/Add_input_port_1/value2015088699" type="Const" version="opset1">
			<data element_type="f32" offset="598808" shape="1" size="4"/>
			<output>
				<port id="0" precision="FP32">
					<dim>1</dim>
				</port>
			</output>
		</layer>
		<layer id="269" name="Resize_335/Add" type="Add" version="opset1">
			<data auto_broadcast="numpy"/>
			<input>
				<port id="0" precision="FP32">
					<dim>4</dim>
				</port>
				<port id="1" precision="FP32">
					<dim>1</dim>
				</port>
			</input>
			<output>
				<port id="2" precision="FP32">
					<dim>4</dim>
				</port>
			</output>
		</layer>
		<layer id="270" name="Resize_335/StridedSlice_scales_input_port_1/value2013988843" type="Const" version="opset1">
			<data element_type="i64" offset="3672" shape="1" size="8"/>
			<output>
				<port id="0" precision="I64">
					<dim>1</dim>
				</port>
			</output>
		</layer>
		<layer id="271" name="Resize_335/StridedSlice_scales_input_port_2/value2014190802" type="Const" version="opset1">
			<data element_type="i64" offset="598800" shape="1" size="8"/>
			<output>
				<port id="0" precision="I64">
					<dim>1</dim>
				</port>
			</output>
		</layer>
		<layer id="272" name="Resize_335/StridedSlice_scales_input_port_3/value2014390532" type="Const" version="opset1">
			<data element_type="i64" offset="3688" shape="1" size="8"/>
			<output>
				<port id="0" precision="I64">
					<dim>1</dim>
				</port>
			</output>
		</layer>
		<layer id="273" name="Resize_335/StridedSlice_scales" type="StridedSlice" version="opset1">
			<data begin_mask="0" ellipsis_mask="0" end_mask="0" new_axis_mask="0" shrink_axis_mask="0"/>
			<input>
				<port id="0" precision="FP32">
					<dim>4</dim>
				</port>
				<port id="1" precision="I64">
					<dim>1</dim>
				</port>
				<port id="2" precision="I64">
					<dim>1</dim>
				</port>
				<port id="3" precision="I64">
					<dim>1</dim>
				</port>
			</input>
			<output>
				<port id="4" precision="FP32">
					<dim>2</dim>
				</port>
			</output>
		</layer>
		<layer id="274" name="Resize_335/axis2014691312" type="Const" version="opset1">
			<data element_type="i64" offset="598812" shape="2" size="16"/>
			<output>
				<port id="0" precision="I64">
					<dim>2</dim>
				</port>
			</output>
		</layer>
		<layer id="275" name="Resize_335" type="Interpolate" version="opset4">
			<data antialias="false" coordinate_transformation_mode="asymmetric" cube_coeff="-0.75" mode="nearest" nearest_mode="floor" pads_begin="0, 0, 0, 0" pads_end="0, 0, 0, 0" shape_calculation_mode="sizes"/>
			<input>
				<port id="0" precision="FP32">
					<dim>1</dim>
					<dim>21</dim>
					<dim>56</dim>
					<dim>56</dim>
				</port>
				<port id="1" precision="I64">
					<dim>2</dim>
				</port>
				<port id="2" precision="FP32">
					<dim>2</dim>
				</port>
				<port id="3" precision="I64">
					<dim>2</dim>
				</port>
			</input>
			<output>
				<port id="4" names="1584" precision="FP32">
					<dim>1</dim>
					<dim>21</dim>
					<dim>112</dim>
					<dim>112</dim>
				</port>
			</output>
		</layer>
		<layer id="276" name="Add_336" type="Add" version="opset1">
			<data auto_broadcast="numpy"/>
			<input>
				<port id="0" precision="FP32">
					<dim>1</dim>
					<dim>21</dim>
					<dim>112</dim>
					<dim>112</dim>
				</port>
				<port id="1" precision="FP32">
					<dim>1</dim>
					<dim>21</dim>
					<dim>112</dim>
					<dim>112</dim>
				</port>
			</input>
			<output>
				<port id="2" names="1585" precision="FP32">
					<dim>1</dim>
					<dim>21</dim>
					<dim>112</dim>
					<dim>112</dim>
				</port>
			</output>
		</layer>
		<layer id="277" name="Relu_337" type="ReLU" version="opset1">
			<input>
				<port id="0" precision="FP32">
					<dim>1</dim>
					<dim>21</dim>
					<dim>112</dim>
					<dim>112</dim>
				</port>
			</input>
			<output>
				<port id="1" names="1586" precision="FP32">
					<dim>1</dim>
					<dim>21</dim>
					<dim>112</dim>
					<dim>112</dim>
				</port>
			</output>
		</layer>
		<layer id="278" name="BatchNormalization_343/mean/Fused_Mul__copy" type="Const" version="opset1">
			<data element_type="f32" offset="598828" shape="21, 21, 3, 3" size="15876"/>
			<output>
				<port id="0" names="backbone.module.stages.1.0.branches.0.0.conv1.weight" precision="FP32">
					<dim>21</dim>
					<dim>21</dim>
					<dim>3</dim>
					<dim>3</dim>
				</port>
			</output>
		</layer>
		<layer id="279" name="Conv_342" type="Convolution" version="opset1">
			<data auto_pad="explicit" dilations="1, 1" pads_begin="1, 1" pads_end="1, 1" strides="1, 1"/>
			<input>
				<port id="0" precision="FP32">
					<dim>1</dim>
					<dim>21</dim>
					<dim>112</dim>
					<dim>112</dim>
				</port>
				<port id="1" precision="FP32">
					<dim>21</dim>
					<dim>21</dim>
					<dim>3</dim>
					<dim>3</dim>
				</port>
			</input>
			<output>
				<port id="2" precision="FP32">
					<dim>1</dim>
					<dim>21</dim>
					<dim>112</dim>
					<dim>112</dim>
				</port>
			</output>
		</layer>
		<layer id="280" name="data_add_4524545250" type="Const" version="opset1">
			<data element_type="f32" offset="614704" shape="1, 21, 1, 1" size="84"/>
			<output>
				<port id="0" precision="FP32">
					<dim>1</dim>
					<dim>21</dim>
					<dim>1</dim>
					<dim>1</dim>
				</port>
			</output>
		</layer>
		<layer id="281" name="BatchNormalization_343/variance/Fused_Add_" type="Add" version="opset1">
			<data auto_broadcast="numpy"/>
			<input>
				<port id="0" precision="FP32">
					<dim>1</dim>
					<dim>21</dim>
					<dim>112</dim>
					<dim>112</dim>
				</port>
				<port id="1" precision="FP32">
					<dim>1</dim>
					<dim>21</dim>
					<dim>1</dim>
					<dim>1</dim>
				</port>
			</input>
			<output>
				<port id="2" names="1592" precision="FP32">
					<dim>1</dim>
					<dim>21</dim>
					<dim>112</dim>
					<dim>112</dim>
				</port>
			</output>
		</layer>
		<layer id="282" name="Relu_344" type="ReLU" version="opset1">
			<input>
				<port id="0" precision="FP32">
					<dim>1</dim>
					<dim>21</dim>
					<dim>112</dim>
					<dim>112</dim>
				</port>
			</input>
			<output>
				<port id="1" names="1593" precision="FP32">
					<dim>1</dim>
					<dim>21</dim>
					<dim>112</dim>
					<dim>112</dim>
				</port>
			</output>
		</layer>
		<layer id="283" name="BatchNormalization_346/mean/Fused_Mul__copy" type="Const" version="opset1">
			<data element_type="f32" offset="614788" shape="21, 21, 3, 3" size="15876"/>
			<output>
				<port id="0" names="backbone.module.stages.1.0.branches.0.0.conv2.weight" precision="FP32">
					<dim>21</dim>
					<dim>21</dim>
					<dim>3</dim>
					<dim>3</dim>
				</port>
			</output>
		</layer>
		<layer id="284" name="Conv_345" type="Convolution" version="opset1">
			<data auto_pad="explicit" dilations="1, 1" pads_begin="1, 1" pads_end="1, 1" strides="1, 1"/>
			<input>
				<port id="0" precision="FP32">
					<dim>1</dim>
					<dim>21</dim>
					<dim>112</dim>
					<dim>112</dim>
				</port>
				<port id="1" precision="FP32">
					<dim>21</dim>
					<dim>21</dim>
					<dim>3</dim>
					<dim>3</dim>
				</port>
			</input>
			<output>
				<port id="2" precision="FP32">
					<dim>1</dim>
					<dim>21</dim>
					<dim>112</dim>
					<dim>112</dim>
				</port>
			</output>
		</layer>
		<layer id="285" name="data_add_4525345258" type="Const" version="opset1">
			<data element_type="f32" offset="630664" shape="1, 21, 1, 1" size="84"/>
			<output>
				<port id="0" precision="FP32">
					<dim>1</dim>
					<dim>21</dim>
					<dim>1</dim>
					<dim>1</dim>
				</port>
			</output>
		</layer>
		<layer id="286" name="BatchNormalization_346/variance/Fused_Add_" type="Add" version="opset1">
			<data auto_broadcast="numpy"/>
			<input>
				<port id="0" precision="FP32">
					<dim>1</dim>
					<dim>21</dim>
					<dim>112</dim>
					<dim>112</dim>
				</port>
				<port id="1" precision="FP32">
					<dim>1</dim>
					<dim>21</dim>
					<dim>1</dim>
					<dim>1</dim>
				</port>
			</input>
			<output>
				<port id="2" names="1595" precision="FP32">
					<dim>1</dim>
					<dim>21</dim>
					<dim>112</dim>
					<dim>112</dim>
				</port>
			</output>
		</layer>
		<layer id="287" name="Add_347" type="Add" version="opset1">
			<data auto_broadcast="numpy"/>
			<input>
				<port id="0" precision="FP32">
					<dim>1</dim>
					<dim>21</dim>
					<dim>112</dim>
					<dim>112</dim>
				</port>
				<port id="1" precision="FP32">
					<dim>1</dim>
					<dim>21</dim>
					<dim>112</dim>
					<dim>112</dim>
				</port>
			</input>
			<output>
				<port id="2" names="1596" precision="FP32">
					<dim>1</dim>
					<dim>21</dim>
					<dim>112</dim>
					<dim>112</dim>
				</port>
			</output>
		</layer>
		<layer id="288" name="Relu_348" type="ReLU" version="opset1">
			<input>
				<port id="0" precision="FP32">
					<dim>1</dim>
					<dim>21</dim>
					<dim>112</dim>
					<dim>112</dim>
				</port>
			</input>
			<output>
				<port id="1" names="1597" precision="FP32">
					<dim>1</dim>
					<dim>21</dim>
					<dim>112</dim>
					<dim>112</dim>
				</port>
			</output>
		</layer>
		<layer id="289" name="BatchNormalization_350/mean/Fused_Mul__copy" type="Const" version="opset1">
			<data element_type="f32" offset="630748" shape="21, 21, 3, 3" size="15876"/>
			<output>
				<port id="0" names="backbone.module.stages.1.0.branches.0.1.conv1.weight" precision="FP32">
					<dim>21</dim>
					<dim>21</dim>
					<dim>3</dim>
					<dim>3</dim>
				</port>
			</output>
		</layer>
		<layer id="290" name="Conv_349" type="Convolution" version="opset1">
			<data auto_pad="explicit" dilations="1, 1" pads_begin="1, 1" pads_end="1, 1" strides="1, 1"/>
			<input>
				<port id="0" precision="FP32">
					<dim>1</dim>
					<dim>21</dim>
					<dim>112</dim>
					<dim>112</dim>
				</port>
				<port id="1" precision="FP32">
					<dim>21</dim>
					<dim>21</dim>
					<dim>3</dim>
					<dim>3</dim>
				</port>
			</input>
			<output>
				<port id="2" precision="FP32">
					<dim>1</dim>
					<dim>21</dim>
					<dim>112</dim>
					<dim>112</dim>
				</port>
			</output>
		</layer>
		<layer id="291" name="data_add_4526145266" type="Const" version="opset1">
			<data element_type="f32" offset="646624" shape="1, 21, 1, 1" size="84"/>
			<output>
				<port id="0" precision="FP32">
					<dim>1</dim>
					<dim>21</dim>
					<dim>1</dim>
					<dim>1</dim>
				</port>
			</output>
		</layer>
		<layer id="292" name="BatchNormalization_350/variance/Fused_Add_" type="Add" version="opset1">
			<data auto_broadcast="numpy"/>
			<input>
				<port id="0" precision="FP32">
					<dim>1</dim>
					<dim>21</dim>
					<dim>112</dim>
					<dim>112</dim>
				</port>
				<port id="1" precision="FP32">
					<dim>1</dim>
					<dim>21</dim>
					<dim>1</dim>
					<dim>1</dim>
				</port>
			</input>
			<output>
				<port id="2" names="1599" precision="FP32">
					<dim>1</dim>
					<dim>21</dim>
					<dim>112</dim>
					<dim>112</dim>
				</port>
			</output>
		</layer>
		<layer id="293" name="Relu_351" type="ReLU" version="opset1">
			<input>
				<port id="0" precision="FP32">
					<dim>1</dim>
					<dim>21</dim>
					<dim>112</dim>
					<dim>112</dim>
				</port>
			</input>
			<output>
				<port id="1" names="1600" precision="FP32">
					<dim>1</dim>
					<dim>21</dim>
					<dim>112</dim>
					<dim>112</dim>
				</port>
			</output>
		</layer>
		<layer id="294" name="BatchNormalization_353/mean/Fused_Mul__copy" type="Const" version="opset1">
			<data element_type="f32" offset="646708" shape="21, 21, 3, 3" size="15876"/>
			<output>
				<port id="0" names="backbone.module.stages.1.0.branches.0.1.conv2.weight" precision="FP32">
					<dim>21</dim>
					<dim>21</dim>
					<dim>3</dim>
					<dim>3</dim>
				</port>
			</output>
		</layer>
		<layer id="295" name="Conv_352" type="Convolution" version="opset1">
			<data auto_pad="explicit" dilations="1, 1" pads_begin="1, 1" pads_end="1, 1" strides="1, 1"/>
			<input>
				<port id="0" precision="FP32">
					<dim>1</dim>
					<dim>21</dim>
					<dim>112</dim>
					<dim>112</dim>
				</port>
				<port id="1" precision="FP32">
					<dim>21</dim>
					<dim>21</dim>
					<dim>3</dim>
					<dim>3</dim>
				</port>
			</input>
			<output>
				<port id="2" precision="FP32">
					<dim>1</dim>
					<dim>21</dim>
					<dim>112</dim>
					<dim>112</dim>
				</port>
			</output>
		</layer>
		<layer id="296" name="data_add_4526945274" type="Const" version="opset1">
			<data element_type="f32" offset="662584" shape="1, 21, 1, 1" size="84"/>
			<output>
				<port id="0" precision="FP32">
					<dim>1</dim>
					<dim>21</dim>
					<dim>1</dim>
					<dim>1</dim>
				</port>
			</output>
		</layer>
		<layer id="297" name="BatchNormalization_353/variance/Fused_Add_" type="Add" version="opset1">
			<data auto_broadcast="numpy"/>
			<input>
				<port id="0" precision="FP32">
					<dim>1</dim>
					<dim>21</dim>
					<dim>112</dim>
					<dim>112</dim>
				</port>
				<port id="1" precision="FP32">
					<dim>1</dim>
					<dim>21</dim>
					<dim>1</dim>
					<dim>1</dim>
				</port>
			</input>
			<output>
				<port id="2" names="1602" precision="FP32">
					<dim>1</dim>
					<dim>21</dim>
					<dim>112</dim>
					<dim>112</dim>
				</port>
			</output>
		</layer>
		<layer id="298" name="Add_354" type="Add" version="opset1">
			<data auto_broadcast="numpy"/>
			<input>
				<port id="0" precision="FP32">
					<dim>1</dim>
					<dim>21</dim>
					<dim>112</dim>
					<dim>112</dim>
				</port>
				<port id="1" precision="FP32">
					<dim>1</dim>
					<dim>21</dim>
					<dim>112</dim>
					<dim>112</dim>
				</port>
			</input>
			<output>
				<port id="2" names="1603" precision="FP32">
					<dim>1</dim>
					<dim>21</dim>
					<dim>112</dim>
					<dim>112</dim>
				</port>
			</output>
		</layer>
		<layer id="299" name="Relu_355" type="ReLU" version="opset1">
			<input>
				<port id="0" precision="FP32">
					<dim>1</dim>
					<dim>21</dim>
					<dim>112</dim>
					<dim>112</dim>
				</port>
			</input>
			<output>
				<port id="1" names="1604" precision="FP32">
					<dim>1</dim>
					<dim>21</dim>
					<dim>112</dim>
					<dim>112</dim>
				</port>
			</output>
		</layer>
		<layer id="300" name="Constant_384" type="Const" version="opset1">
			<data element_type="f32" offset="153380" shape="1, 1, 1, 1" size="4"/>
			<output>
				<port id="0" names="1633" precision="FP32">
					<dim>1</dim>
					<dim>1</dim>
					<dim>1</dim>
					<dim>1</dim>
				</port>
			</output>
		</layer>
		<layer id="301" name="Add_385" type="Add" version="opset1">
			<data auto_broadcast="numpy"/>
			<input>
				<port id="0" precision="FP32">
					<dim>1</dim>
					<dim>21</dim>
					<dim>112</dim>
					<dim>112</dim>
				</port>
				<port id="1" precision="FP32">
					<dim>1</dim>
					<dim>1</dim>
					<dim>1</dim>
					<dim>1</dim>
				</port>
			</input>
			<output>
				<port id="2" names="1634" precision="FP32">
					<dim>1</dim>
					<dim>21</dim>
					<dim>112</dim>
					<dim>112</dim>
				</port>
			</output>
		</layer>
		<layer id="302" name="BatchNormalization_339/mean/Fused_Mul__copy" type="Const" version="opset1">
			<data element_type="f32" offset="662668" shape="42, 21, 3, 3" size="31752"/>
			<output>
				<port id="0" names="backbone.module.stages.0.0.fuse_layers.1.0.0.0.weight" precision="FP32">
					<dim>42</dim>
					<dim>21</dim>
					<dim>3</dim>
					<dim>3</dim>
				</port>
			</output>
		</layer>
		<layer id="303" name="Conv_338" type="Convolution" version="opset1">
			<data auto_pad="explicit" dilations="1, 1" pads_begin="1, 1" pads_end="1, 1" strides="2, 2"/>
			<input>
				<port id="0" precision="FP32">
					<dim>1</dim>
					<dim>21</dim>
					<dim>112</dim>
					<dim>112</dim>
				</port>
				<port id="1" precision="FP32">
					<dim>42</dim>
					<dim>21</dim>
					<dim>3</dim>
					<dim>3</dim>
				</port>
			</input>
			<output>
				<port id="2" precision="FP32">
					<dim>1</dim>
					<dim>42</dim>
					<dim>56</dim>
					<dim>56</dim>
				</port>
			</output>
		</layer>
		<layer id="304" name="data_add_4509345098" type="Const" version="opset1">
			<data element_type="f32" offset="694420" shape="1, 42, 1, 1" size="168"/>
			<output>
				<port id="0" precision="FP32">
					<dim>1</dim>
					<dim>42</dim>
					<dim>1</dim>
					<dim>1</dim>
				</port>
			</output>
		</layer>
		<layer id="305" name="BatchNormalization_339/variance/Fused_Add_" type="Add" version="opset1">
			<data auto_broadcast="numpy"/>
			<input>
				<port id="0" precision="FP32">
					<dim>1</dim>
					<dim>42</dim>
					<dim>56</dim>
					<dim>56</dim>
				</port>
				<port id="1" precision="FP32">
					<dim>1</dim>
					<dim>42</dim>
					<dim>1</dim>
					<dim>1</dim>
				</port>
			</input>
			<output>
				<port id="2" names="1588" precision="FP32">
					<dim>1</dim>
					<dim>42</dim>
					<dim>56</dim>
					<dim>56</dim>
				</port>
			</output>
		</layer>
		<layer id="306" name="Add_340" type="Add" version="opset1">
			<data auto_broadcast="numpy"/>
			<input>
				<port id="0" precision="FP32">
					<dim>1</dim>
					<dim>42</dim>
					<dim>56</dim>
					<dim>56</dim>
				</port>
				<port id="1" precision="FP32">
					<dim>1</dim>
					<dim>42</dim>
					<dim>56</dim>
					<dim>56</dim>
				</port>
			</input>
			<output>
				<port id="2" names="1589" precision="FP32">
					<dim>1</dim>
					<dim>42</dim>
					<dim>56</dim>
					<dim>56</dim>
				</port>
			</output>
		</layer>
		<layer id="307" name="Relu_341" type="ReLU" version="opset1">
			<input>
				<port id="0" precision="FP32">
					<dim>1</dim>
					<dim>42</dim>
					<dim>56</dim>
					<dim>56</dim>
				</port>
			</input>
			<output>
				<port id="1" names="1590" precision="FP32">
					<dim>1</dim>
					<dim>42</dim>
					<dim>56</dim>
					<dim>56</dim>
				</port>
			</output>
		</layer>
		<layer id="308" name="BatchNormalization_357/mean/Fused_Mul__copy" type="Const" version="opset1">
			<data element_type="f32" offset="694588" shape="42, 42, 3, 3" size="63504"/>
			<output>
				<port id="0" names="backbone.module.stages.1.0.branches.1.0.conv1.weight" precision="FP32">
					<dim>42</dim>
					<dim>42</dim>
					<dim>3</dim>
					<dim>3</dim>
				</port>
			</output>
		</layer>
		<layer id="309" name="Conv_356" type="Convolution" version="opset1">
			<data auto_pad="explicit" dilations="1, 1" pads_begin="1, 1" pads_end="1, 1" strides="1, 1"/>
			<input>
				<port id="0" precision="FP32">
					<dim>1</dim>
					<dim>42</dim>
					<dim>56</dim>
					<dim>56</dim>
				</port>
				<port id="1" precision="FP32">
					<dim>42</dim>
					<dim>42</dim>
					<dim>3</dim>
					<dim>3</dim>
				</port>
			</input>
			<output>
				<port id="2" precision="FP32">
					<dim>1</dim>
					<dim>42</dim>
					<dim>56</dim>
					<dim>56</dim>
				</port>
			</output>
		</layer>
		<layer id="310" name="data_add_4518945194" type="Const" version="opset1">
			<data element_type="f32" offset="758092" shape="1, 42, 1, 1" size="168"/>
			<output>
				<port id="0" precision="FP32">
					<dim>1</dim>
					<dim>42</dim>
					<dim>1</dim>
					<dim>1</dim>
				</port>
			</output>
		</layer>
		<layer id="311" name="BatchNormalization_357/variance/Fused_Add_" type="Add" version="opset1">
			<data auto_broadcast="numpy"/>
			<input>
				<port id="0" precision="FP32">
					<dim>1</dim>
					<dim>42</dim>
					<dim>56</dim>
					<dim>56</dim>
				</port>
				<port id="1" precision="FP32">
					<dim>1</dim>
					<dim>42</dim>
					<dim>1</dim>
					<dim>1</dim>
				</port>
			</input>
			<output>
				<port id="2" names="1606" precision="FP32">
					<dim>1</dim>
					<dim>42</dim>
					<dim>56</dim>
					<dim>56</dim>
				</port>
			</output>
		</layer>
		<layer id="312" name="Relu_358" type="ReLU" version="opset1">
			<input>
				<port id="0" precision="FP32">
					<dim>1</dim>
					<dim>42</dim>
					<dim>56</dim>
					<dim>56</dim>
				</port>
			</input>
			<output>
				<port id="1" names="1607" precision="FP32">
					<dim>1</dim>
					<dim>42</dim>
					<dim>56</dim>
					<dim>56</dim>
				</port>
			</output>
		</layer>
		<layer id="313" name="BatchNormalization_360/mean/Fused_Mul__copy" type="Const" version="opset1">
			<data element_type="f32" offset="758260" shape="42, 42, 3, 3" size="63504"/>
			<output>
				<port id="0" names="backbone.module.stages.1.0.branches.1.0.conv2.weight" precision="FP32">
					<dim>42</dim>
					<dim>42</dim>
					<dim>3</dim>
					<dim>3</dim>
				</port>
			</output>
		</layer>
		<layer id="314" name="Conv_359" type="Convolution" version="opset1">
			<data auto_pad="explicit" dilations="1, 1" pads_begin="1, 1" pads_end="1, 1" strides="1, 1"/>
			<input>
				<port id="0" precision="FP32">
					<dim>1</dim>
					<dim>42</dim>
					<dim>56</dim>
					<dim>56</dim>
				</port>
				<port id="1" precision="FP32">
					<dim>42</dim>
					<dim>42</dim>
					<dim>3</dim>
					<dim>3</dim>
				</port>
			</input>
			<output>
				<port id="2" precision="FP32">
					<dim>1</dim>
					<dim>42</dim>
					<dim>56</dim>
					<dim>56</dim>
				</port>
			</output>
		</layer>
		<layer id="315" name="data_add_4519745202" type="Const" version="opset1">
			<data element_type="f32" offset="821764" shape="1, 42, 1, 1" size="168"/>
			<output>
				<port id="0" precision="FP32">
					<dim>1</dim>
					<dim>42</dim>
					<dim>1</dim>
					<dim>1</dim>
				</port>
			</output>
		</layer>
		<layer id="316" name="BatchNormalization_360/variance/Fused_Add_" type="Add" version="opset1">
			<data auto_broadcast="numpy"/>
			<input>
				<port id="0" precision="FP32">
					<dim>1</dim>
					<dim>42</dim>
					<dim>56</dim>
					<dim>56</dim>
				</port>
				<port id="1" precision="FP32">
					<dim>1</dim>
					<dim>42</dim>
					<dim>1</dim>
					<dim>1</dim>
				</port>
			</input>
			<output>
				<port id="2" names="1609" precision="FP32">
					<dim>1</dim>
					<dim>42</dim>
					<dim>56</dim>
					<dim>56</dim>
				</port>
			</output>
		</layer>
		<layer id="317" name="Add_361" type="Add" version="opset1">
			<data auto_broadcast="numpy"/>
			<input>
				<port id="0" precision="FP32">
					<dim>1</dim>
					<dim>42</dim>
					<dim>56</dim>
					<dim>56</dim>
				</port>
				<port id="1" precision="FP32">
					<dim>1</dim>
					<dim>42</dim>
					<dim>56</dim>
					<dim>56</dim>
				</port>
			</input>
			<output>
				<port id="2" names="1610" precision="FP32">
					<dim>1</dim>
					<dim>42</dim>
					<dim>56</dim>
					<dim>56</dim>
				</port>
			</output>
		</layer>
		<layer id="318" name="Relu_362" type="ReLU" version="opset1">
			<input>
				<port id="0" precision="FP32">
					<dim>1</dim>
					<dim>42</dim>
					<dim>56</dim>
					<dim>56</dim>
				</port>
			</input>
			<output>
				<port id="1" names="1611" precision="FP32">
					<dim>1</dim>
					<dim>42</dim>
					<dim>56</dim>
					<dim>56</dim>
				</port>
			</output>
		</layer>
		<layer id="319" name="BatchNormalization_364/mean/Fused_Mul__copy" type="Const" version="opset1">
			<data element_type="f32" offset="821932" shape="42, 42, 3, 3" size="63504"/>
			<output>
				<port id="0" names="backbone.module.stages.1.0.branches.1.1.conv1.weight" precision="FP32">
					<dim>42</dim>
					<dim>42</dim>
					<dim>3</dim>
					<dim>3</dim>
				</port>
			</output>
		</layer>
		<layer id="320" name="Conv_363" type="Convolution" version="opset1">
			<data auto_pad="explicit" dilations="1, 1" pads_begin="1, 1" pads_end="1, 1" strides="1, 1"/>
			<input>
				<port id="0" precision="FP32">
					<dim>1</dim>
					<dim>42</dim>
					<dim>56</dim>
					<dim>56</dim>
				</port>
				<port id="1" precision="FP32">
					<dim>42</dim>
					<dim>42</dim>
					<dim>3</dim>
					<dim>3</dim>
				</port>
			</input>
			<output>
				<port id="2" precision="FP32">
					<dim>1</dim>
					<dim>42</dim>
					<dim>56</dim>
					<dim>56</dim>
				</port>
			</output>
		</layer>
		<layer id="321" name="data_add_4520545210" type="Const" version="opset1">
			<data element_type="f32" offset="885436" shape="1, 42, 1, 1" size="168"/>
			<output>
				<port id="0" precision="FP32">
					<dim>1</dim>
					<dim>42</dim>
					<dim>1</dim>
					<dim>1</dim>
				</port>
			</output>
		</layer>
		<layer id="322" name="BatchNormalization_364/variance/Fused_Add_" type="Add" version="opset1">
			<data auto_broadcast="numpy"/>
			<input>
				<port id="0" precision="FP32">
					<dim>1</dim>
					<dim>42</dim>
					<dim>56</dim>
					<dim>56</dim>
				</port>
				<port id="1" precision="FP32">
					<dim>1</dim>
					<dim>42</dim>
					<dim>1</dim>
					<dim>1</dim>
				</port>
			</input>
			<output>
				<port id="2" names="1613" precision="FP32">
					<dim>1</dim>
					<dim>42</dim>
					<dim>56</dim>
					<dim>56</dim>
				</port>
			</output>
		</layer>
		<layer id="323" name="Relu_365" type="ReLU" version="opset1">
			<input>
				<port id="0" precision="FP32">
					<dim>1</dim>
					<dim>42</dim>
					<dim>56</dim>
					<dim>56</dim>
				</port>
			</input>
			<output>
				<port id="1" names="1614" precision="FP32">
					<dim>1</dim>
					<dim>42</dim>
					<dim>56</dim>
					<dim>56</dim>
				</port>
			</output>
		</layer>
		<layer id="324" name="BatchNormalization_367/mean/Fused_Mul__copy" type="Const" version="opset1">
			<data element_type="f32" offset="885604" shape="42, 42, 3, 3" size="63504"/>
			<output>
				<port id="0" names="backbone.module.stages.1.0.branches.1.1.conv2.weight" precision="FP32">
					<dim>42</dim>
					<dim>42</dim>
					<dim>3</dim>
					<dim>3</dim>
				</port>
			</output>
		</layer>
		<layer id="325" name="Conv_366" type="Convolution" version="opset1">
			<data auto_pad="explicit" dilations="1, 1" pads_begin="1, 1" pads_end="1, 1" strides="1, 1"/>
			<input>
				<port id="0" precision="FP32">
					<dim>1</dim>
					<dim>42</dim>
					<dim>56</dim>
					<dim>56</dim>
				</port>
				<port id="1" precision="FP32">
					<dim>42</dim>
					<dim>42</dim>
					<dim>3</dim>
					<dim>3</dim>
				</port>
			</input>
			<output>
				<port id="2" precision="FP32">
					<dim>1</dim>
					<dim>42</dim>
					<dim>56</dim>
					<dim>56</dim>
				</port>
			</output>
		</layer>
		<layer id="326" name="data_add_4521345218" type="Const" version="opset1">
			<data element_type="f32" offset="949108" shape="1, 42, 1, 1" size="168"/>
			<output>
				<port id="0" precision="FP32">
					<dim>1</dim>
					<dim>42</dim>
					<dim>1</dim>
					<dim>1</dim>
				</port>
			</output>
		</layer>
		<layer id="327" name="BatchNormalization_367/variance/Fused_Add_" type="Add" version="opset1">
			<data auto_broadcast="numpy"/>
			<input>
				<port id="0" precision="FP32">
					<dim>1</dim>
					<dim>42</dim>
					<dim>56</dim>
					<dim>56</dim>
				</port>
				<port id="1" precision="FP32">
					<dim>1</dim>
					<dim>42</dim>
					<dim>1</dim>
					<dim>1</dim>
				</port>
			</input>
			<output>
				<port id="2" names="1616" precision="FP32">
					<dim>1</dim>
					<dim>42</dim>
					<dim>56</dim>
					<dim>56</dim>
				</port>
			</output>
		</layer>
		<layer id="328" name="Add_368" type="Add" version="opset1">
			<data auto_broadcast="numpy"/>
			<input>
				<port id="0" precision="FP32">
					<dim>1</dim>
					<dim>42</dim>
					<dim>56</dim>
					<dim>56</dim>
				</port>
				<port id="1" precision="FP32">
					<dim>1</dim>
					<dim>42</dim>
					<dim>56</dim>
					<dim>56</dim>
				</port>
			</input>
			<output>
				<port id="2" names="1617" precision="FP32">
					<dim>1</dim>
					<dim>42</dim>
					<dim>56</dim>
					<dim>56</dim>
				</port>
			</output>
		</layer>
		<layer id="329" name="Relu_369" type="ReLU" version="opset1">
			<input>
				<port id="0" precision="FP32">
					<dim>1</dim>
					<dim>42</dim>
					<dim>56</dim>
					<dim>56</dim>
				</port>
			</input>
			<output>
				<port id="1" names="1618" precision="FP32">
					<dim>1</dim>
					<dim>42</dim>
					<dim>56</dim>
					<dim>56</dim>
				</port>
			</output>
		</layer>
		<layer id="330" name="BatchNormalization_387/mean/Fused_Mul__copy" type="Const" version="opset1">
			<data element_type="f32" offset="949276" shape="21, 42, 1, 1" size="3528"/>
			<output>
				<port id="0" names="backbone.module.stages.1.0.fuse_layers.0.1.0.weight" precision="FP32">
					<dim>21</dim>
					<dim>42</dim>
					<dim>1</dim>
					<dim>1</dim>
				</port>
			</output>
		</layer>
		<layer id="331" name="Conv_386" type="Convolution" version="opset1">
			<data auto_pad="explicit" dilations="1, 1" pads_begin="0, 0" pads_end="0, 0" strides="1, 1"/>
			<input>
				<port id="0" precision="FP32">
					<dim>1</dim>
					<dim>42</dim>
					<dim>56</dim>
					<dim>56</dim>
				</port>
				<port id="1" precision="FP32">
					<dim>21</dim>
					<dim>42</dim>
					<dim>1</dim>
					<dim>1</dim>
				</port>
			</input>
			<output>
				<port id="2" precision="FP32">
					<dim>1</dim>
					<dim>21</dim>
					<dim>56</dim>
					<dim>56</dim>
				</port>
			</output>
		</layer>
		<layer id="332" name="data_add_4522945234" type="Const" version="opset1">
			<data element_type="f32" offset="952804" shape="1, 21, 1, 1" size="84"/>
			<output>
				<port id="0" precision="FP32">
					<dim>1</dim>
					<dim>21</dim>
					<dim>1</dim>
					<dim>1</dim>
				</port>
			</output>
		</layer>
		<layer id="333" name="BatchNormalization_387/variance/Fused_Add_" type="Add" version="opset1">
			<data auto_broadcast="numpy"/>
			<input>
				<port id="0" precision="FP32">
					<dim>1</dim>
					<dim>21</dim>
					<dim>56</dim>
					<dim>56</dim>
				</port>
				<port id="1" precision="FP32">
					<dim>1</dim>
					<dim>21</dim>
					<dim>1</dim>
					<dim>1</dim>
				</port>
			</input>
			<output>
				<port id="2" names="1636" precision="FP32">
					<dim>1</dim>
					<dim>21</dim>
					<dim>56</dim>
					<dim>56</dim>
				</port>
			</output>
		</layer>
		<layer id="334" name="Shape_408" type="ShapeOf" version="opset3">
			<data output_type="i64"/>
			<input>
				<port id="0" precision="FP32">
					<dim>1</dim>
					<dim>21</dim>
					<dim>56</dim>
					<dim>56</dim>
				</port>
			</input>
			<output>
				<port id="1" names="1657" precision="I64">
					<dim>4</dim>
				</port>
			</output>
		</layer>
		<layer id="335" name="Slice_412/Concat2710889287" type="Const" version="opset1">
			<data element_type="i64" offset="3680" shape="1" size="8"/>
			<output>
				<port id="0" precision="I64">
					<dim>1</dim>
				</port>
			</output>
		</layer>
		<layer id="336" name="Slice_412/Concat270982710990187" type="Const" version="opset1">
			<data element_type="i64" offset="3672" shape="1" size="8"/>
			<output>
				<port id="0" precision="I64">
					<dim>1</dim>
				</port>
			</output>
		</layer>
		<layer id="337" name="Slice_412/Strides2711090496" type="Const" version="opset1">
			<data element_type="i64" offset="3688" shape="1" size="8"/>
			<output>
				<port id="0" precision="I64">
					<dim>1</dim>
				</port>
			</output>
		</layer>
		<layer id="338" name="Slice_412" type="StridedSlice" version="opset1">
			<data begin_mask="0" ellipsis_mask="0" end_mask="0" new_axis_mask="0" shrink_axis_mask="0"/>
			<input>
				<port id="0" precision="I64">
					<dim>4</dim>
				</port>
				<port id="1" precision="I64">
					<dim>1</dim>
				</port>
				<port id="2" precision="I64">
					<dim>1</dim>
				</port>
				<port id="3" precision="I64">
					<dim>1</dim>
				</port>
			</input>
			<output>
				<port id="4" names="1661" precision="I64">
					<dim>2</dim>
				</port>
			</output>
		</layer>
		<layer id="339" name="Shape_388" type="ShapeOf" version="opset3">
			<data output_type="i64"/>
			<input>
				<port id="0" precision="FP32">
					<dim>1</dim>
					<dim>21</dim>
					<dim>56</dim>
					<dim>56</dim>
				</port>
			</input>
			<output>
				<port id="1" names="1637" precision="I64">
					<dim>4</dim>
				</port>
			</output>
		</layer>
		<layer id="340" name="Constant_389" type="Const" version="opset1">
			<data element_type="i32" offset="598788" shape="" size="4"/>
			<output>
				<port id="0" names="1638" precision="I32"/>
			</output>
		</layer>
		<layer id="341" name="Gather_390/axis" type="Const" version="opset1">
			<data element_type="i64" offset="3680" shape="" size="8"/>
			<output>
				<port id="0" precision="I64"/>
			</output>
		</layer>
		<layer id="342" name="Gather_3902732" type="Gather" version="opset7">
			<data batch_dims="0"/>
			<input>
				<port id="0" precision="I64">
					<dim>4</dim>
				</port>
				<port id="1" precision="I32"/>
				<port id="2" precision="I64"/>
			</input>
			<output>
				<port id="3" names="1639" precision="I64"/>
			</output>
		</layer>
		<layer id="343" name="Cast_391" type="Convert" version="opset1">
			<data destination_type="f32"/>
			<input>
				<port id="0" precision="I64"/>
			</input>
			<output>
				<port id="1" names="1640" precision="FP32"/>
			</output>
		</layer>
		<layer id="344" name="Constant_392" type="Const" version="opset1">
			<data element_type="f32" offset="598792" shape="" size="4"/>
			<output>
				<port id="0" names="1641" precision="FP32"/>
			</output>
		</layer>
		<layer id="345" name="Mul_393" type="Multiply" version="opset1">
			<data auto_broadcast="numpy"/>
			<input>
				<port id="0" precision="FP32"/>
				<port id="1" precision="FP32"/>
			</input>
			<output>
				<port id="2" names="1642,1643" precision="FP32"/>
			</output>
		</layer>
		<layer id="346" name="Floor_395" type="Floor" version="opset1">
			<input>
				<port id="0" precision="FP32"/>
			</input>
			<output>
				<port id="1" names="1644" precision="FP32"/>
			</output>
		</layer>
		<layer id="347" name="Unsqueeze_404/Dims" type="Const" version="opset1">
			<data element_type="i64" offset="3680" shape="1" size="8"/>
			<output>
				<port id="0" precision="I64">
					<dim>1</dim>
				</port>
			</output>
		</layer>
		<layer id="348" name="Unsqueeze_404/Unsqueeze" type="Unsqueeze" version="opset1">
			<input>
				<port id="0" precision="FP32"/>
				<port id="1" precision="I64">
					<dim>1</dim>
				</port>
			</input>
			<output>
				<port id="2" names="1653" precision="FP32">
					<dim>1</dim>
				</port>
			</output>
		</layer>
		<layer id="349" name="Shape_396" type="ShapeOf" version="opset3">
			<data output_type="i64"/>
			<input>
				<port id="0" precision="FP32">
					<dim>1</dim>
					<dim>21</dim>
					<dim>56</dim>
					<dim>56</dim>
				</port>
			</input>
			<output>
				<port id="1" names="1645" precision="I64">
					<dim>4</dim>
				</port>
			</output>
		</layer>
		<layer id="350" name="Constant_397" type="Const" version="opset1">
			<data element_type="i32" offset="598796" shape="" size="4"/>
			<output>
				<port id="0" names="1646" precision="I32"/>
			</output>
		</layer>
		<layer id="351" name="Gather_398/axis" type="Const" version="opset1">
			<data element_type="i64" offset="3680" shape="" size="8"/>
			<output>
				<port id="0" precision="I64"/>
			</output>
		</layer>
		<layer id="352" name="Gather_3982762" type="Gather" version="opset7">
			<data batch_dims="0"/>
			<input>
				<port id="0" precision="I64">
					<dim>4</dim>
				</port>
				<port id="1" precision="I32"/>
				<port id="2" precision="I64"/>
			</input>
			<output>
				<port id="3" names="1647" precision="I64"/>
			</output>
		</layer>
		<layer id="353" name="Cast_399" type="Convert" version="opset1">
			<data destination_type="f32"/>
			<input>
				<port id="0" precision="I64"/>
			</input>
			<output>
				<port id="1" names="1648" precision="FP32"/>
			</output>
		</layer>
		<layer id="354" name="Constant_400" type="Const" version="opset1">
			<data element_type="f32" offset="598792" shape="" size="4"/>
			<output>
				<port id="0" names="1649" precision="FP32"/>
			</output>
		</layer>
		<layer id="355" name="Mul_401" type="Multiply" version="opset1">
			<data auto_broadcast="numpy"/>
			<input>
				<port id="0" precision="FP32"/>
				<port id="1" precision="FP32"/>
			</input>
			<output>
				<port id="2" names="1650,1651" precision="FP32"/>
			</output>
		</layer>
		<layer id="356" name="Floor_403" type="Floor" version="opset1">
			<input>
				<port id="0" precision="FP32"/>
			</input>
			<output>
				<port id="1" names="1652" precision="FP32"/>
			</output>
		</layer>
		<layer id="357" name="Unsqueeze_405/Dims" type="Const" version="opset1">
			<data element_type="i64" offset="3680" shape="1" size="8"/>
			<output>
				<port id="0" precision="I64">
					<dim>1</dim>
				</port>
			</output>
		</layer>
		<layer id="358" name="Unsqueeze_405/Unsqueeze" type="Unsqueeze" version="opset1">
			<input>
				<port id="0" precision="FP32"/>
				<port id="1" precision="I64">
					<dim>1</dim>
				</port>
			</input>
			<output>
				<port id="2" names="1654" precision="FP32">
					<dim>1</dim>
				</port>
			</output>
		</layer>
		<layer id="359" name="Concat_406" type="Concat" version="opset1">
			<data axis="0"/>
			<input>
				<port id="0" precision="FP32">
					<dim>1</dim>
				</port>
				<port id="1" precision="FP32">
					<dim>1</dim>
				</port>
			</input>
			<output>
				<port id="2" names="1655" precision="FP32">
					<dim>2</dim>
				</port>
			</output>
		</layer>
		<layer id="360" name="Cast_413" type="Convert" version="opset1">
			<data destination_type="i64"/>
			<input>
				<port id="0" precision="FP32">
					<dim>2</dim>
				</port>
			</input>
			<output>
				<port id="1" names="1662" precision="I64">
					<dim>2</dim>
				</port>
			</output>
		</layer>
		<layer id="361" name="Concat_414" type="Concat" version="opset1">
			<data axis="0"/>
			<input>
				<port id="0" precision="I64">
					<dim>2</dim>
				</port>
				<port id="1" precision="I64">
					<dim>2</dim>
				</port>
			</input>
			<output>
				<port id="2" names="1663" precision="I64">
					<dim>4</dim>
				</port>
			</output>
		</layer>
		<layer id="362" name="Resize_416/StridedSlice_sizes_input_port_1/value2016490022" type="Const" version="opset1">
			<data element_type="i64" offset="3672" shape="1" size="8"/>
			<output>
				<port id="0" precision="I64">
					<dim>1</dim>
				</port>
			</output>
		</layer>
		<layer id="363" name="Resize_416/StridedSlice_sizes_input_port_2/value2016690769" type="Const" version="opset1">
			<data element_type="i64" offset="598800" shape="1" size="8"/>
			<output>
				<port id="0" precision="I64">
					<dim>1</dim>
				</port>
			</output>
		</layer>
		<layer id="364" name="Resize_416/StridedSlice_sizes_input_port_3/value2016890904" type="Const" version="opset1">
			<data element_type="i64" offset="3688" shape="1" size="8"/>
			<output>
				<port id="0" precision="I64">
					<dim>1</dim>
				</port>
			</output>
		</layer>
		<layer id="365" name="Resize_416/StridedSlice_sizes" type="StridedSlice" version="opset1">
			<data begin_mask="0" ellipsis_mask="0" end_mask="0" new_axis_mask="0" shrink_axis_mask="0"/>
			<input>
				<port id="0" precision="I64">
					<dim>4</dim>
				</port>
				<port id="1" precision="I64">
					<dim>1</dim>
				</port>
				<port id="2" precision="I64">
					<dim>1</dim>
				</port>
				<port id="3" precision="I64">
					<dim>1</dim>
				</port>
			</input>
			<output>
				<port id="4" precision="I64">
					<dim>2</dim>
				</port>
			</output>
		</layer>
		<layer id="366" name="20184" type="Convert" version="opset1">
			<data destination_type="f32"/>
			<input>
				<port id="0" precision="I64">
					<dim>4</dim>
				</port>
			</input>
			<output>
				<port id="1" precision="FP32">
					<dim>4</dim>
				</port>
			</output>
		</layer>
		<layer id="367" name="Resize_416/ShapeOf" type="ShapeOf" version="opset3">
			<data output_type="i64"/>
			<input>
				<port id="0" precision="FP32">
					<dim>1</dim>
…
		<edge from-layer="1709" from-port="1" to-layer="1711" to-port="0"/>
		<edge from-layer="1710" from-port="0" to-layer="1711" to-port="1"/>
		<edge from-layer="1711" from-port="2" to-layer="1713" to-port="0"/>
		<edge from-layer="1712" from-port="0" to-layer="1713" to-port="1"/>
		<edge from-layer="1713" from-port="2" to-layer="1714" to-port="0"/>
		<edge from-layer="1714" from-port="1" to-layer="1716" to-port="0"/>
		<edge from-layer="1715" from-port="0" to-layer="1716" to-port="1"/>
		<edge from-layer="1716" from-port="2" to-layer="1718" to-port="0"/>
		<edge from-layer="1717" from-port="0" to-layer="1718" to-port="1"/>
		<edge from-layer="1718" from-port="2" to-layer="1719" to-port="0"/>
		<edge from-layer="1719" from-port="2" to-layer="1720" to-port="0"/>
		<edge from-layer="1720" from-port="1" to-layer="1730" to-port="1"/>
		<edge from-layer="1720" from-port="1" to-layer="1722" to-port="0"/>
		<edge from-layer="1721" from-port="0" to-layer="1722" to-port="1"/>
		<edge from-layer="1722" from-port="2" to-layer="1724" to-port="0"/>
		<edge from-layer="1723" from-port="0" to-layer="1724" to-port="1"/>
		<edge from-layer="1724" from-port="2" to-layer="1725" to-port="0"/>
		<edge from-layer="1725" from-port="1" to-layer="1727" to-port="0"/>
		<edge from-layer="1726" from-port="0" to-layer="1727" to-port="1"/>
		<edge from-layer="1727" from-port="2" to-layer="1729" to-port="0"/>
		<edge from-layer="1728" from-port="0" to-layer="1729" to-port="1"/>
		<edge from-layer="1729" from-port="2" to-layer="1730" to-port="0"/>
		<edge from-layer="1730" from-port="2" to-layer="1731" to-port="0"/>
		<edge from-layer="1731" from-port="1" to-layer="1861" to-port="0"/>
		<edge from-layer="1731" from-port="1" to-layer="1997" to-port="0"/>
		<edge from-layer="1731" from-port="1" to-layer="1733" to-port="0"/>
		<edge from-layer="1731" from-port="1" to-layer="2146" to-port="1"/>
		<edge from-layer="1732" from-port="0" to-layer="1733" to-port="1"/>
		<edge from-layer="1733" from-port="2" to-layer="1735" to-port="0"/>
		<edge from-layer="1734" from-port="0" to-layer="1735" to-port="1"/>
		<edge from-layer="1735" from-port="2" to-layer="1769" to-port="0"/>
		<edge from-layer="1735" from-port="2" to-layer="1779" to-port="0"/>
		<edge from-layer="1735" from-port="2" to-layer="1736" to-port="0"/>
		<edge from-layer="1735" from-port="2" to-layer="1741" to-port="0"/>
		<edge from-layer="1735" from-port="2" to-layer="1751" to-port="0"/>
		<edge from-layer="1736" from-port="1" to-layer="1740" to-port="0"/>
		<edge from-layer="1737" from-port="0" to-layer="1740" to-port="1"/>
		<edge from-layer="1738" from-port="0" to-layer="1740" to-port="2"/>
		<edge from-layer="1739" from-port="0" to-layer="1740" to-port="3"/>
		<edge from-layer="1740" from-port="4" to-layer="1763" to-port="0"/>
		<edge from-layer="1741" from-port="1" to-layer="1744" to-port="0"/>
		<edge from-layer="1742" from-port="0" to-layer="1744" to-port="1"/>
		<edge from-layer="1743" from-port="0" to-layer="1744" to-port="2"/>
		<edge from-layer="1744" from-port="3" to-layer="1745" to-port="0"/>
		<edge from-layer="1745" from-port="1" to-layer="1747" to-port="0"/>
		<edge from-layer="1746" from-port="0" to-layer="1747" to-port="1"/>
		<edge from-layer="1747" from-port="2" to-layer="1748" to-port="0"/>
		<edge from-layer="1748" from-port="1" to-layer="1750" to-port="0"/>
		<edge from-layer="1749" from-port="0" to-layer="1750" to-port="1"/>
		<edge from-layer="1750" from-port="2" to-layer="1761" to-port="0"/>
		<edge from-layer="1751" from-port="1" to-layer="1754" to-port="0"/>
		<edge from-layer="1752" from-port="0" to-layer="1754" to-port="1"/>
		<edge from-layer="1753" from-port="0" to-layer="1754" to-port="2"/>
		<edge from-layer="1754" from-port="3" to-layer="1755" to-port="0"/>
		<edge from-layer="1755" from-port="1" to-layer="1757" to-port="0"/>
		<edge from-layer="1756" from-port="0" to-layer="1757" to-port="1"/>
		<edge from-layer="1757" from-port="2" to-layer="1758" to-port="0"/>
		<edge from-layer="1758" from-port="1" to-layer="1760" to-port="0"/>
		<edge from-layer="1759" from-port="0" to-layer="1760" to-port="1"/>
		<edge from-layer="1760" from-port="2" to-layer="1761" to-port="1"/>
		<edge from-layer="1761" from-port="2" to-layer="1762" to-port="0"/>
		<edge from-layer="1762" from-port="1" to-layer="1763" to-port="1"/>
		<edge from-layer="1763" from-port="2" to-layer="1767" to-port="0"/>
		<edge from-layer="1763" from-port="2" to-layer="1768" to-port="0"/>
		<edge from-layer="1764" from-port="0" to-layer="1767" to-port="1"/>
		<edge from-layer="1765" from-port="0" to-layer="1767" to-port="2"/>
		<edge from-layer="1766" from-port="0" to-layer="1767" to-port="3"/>
		<edge from-layer="1767" from-port="4" to-layer="1779" to-port="1"/>
		<edge from-layer="1768" from-port="1" to-layer="1771" to-port="0"/>
		<edge from-layer="1769" from-port="1" to-layer="1770" to-port="0"/>
		<edge from-layer="1770" from-port="1" to-layer="1771" to-port="1"/>
		<edge from-layer="1771" from-port="2" to-layer="1773" to-port="0"/>
		<edge from-layer="1772" from-port="0" to-layer="1773" to-port="1"/>
		<edge from-layer="1773" from-port="2" to-layer="1777" to-port="0"/>
		<edge from-layer="1774" from-port="0" to-layer="1777" to-port="1"/>
		<edge from-layer="1775" from-port="0" to-layer="1777" to-port="2"/>
		<edge from-layer="1776" from-port="0" to-layer="1777" to-port="3"/>
		<edge from-layer="1777" from-port="4" to-layer="1779" to-port="2"/>
		<edge from-layer="1778" from-port="0" to-layer="1779" to-port="3"/>
		<edge from-layer="1779" from-port="4" to-layer="1780" to-port="1"/>
		<edge from-layer="1780" from-port="2" to-layer="1781" to-port="0"/>
		<edge from-layer="1781" from-port="1" to-layer="1791" to-port="1"/>
		<edge from-layer="1781" from-port="1" to-layer="1783" to-port="0"/>
		<edge from-layer="1782" from-port="0" to-layer="1783" to-port="1"/>
		<edge from-layer="1783" from-port="2" to-layer="1785" to-port="0"/>
		<edge from-layer="1784" from-port="0" to-layer="1785" to-port="1"/>
		<edge from-layer="1785" from-port="2" to-layer="1786" to-port="0"/>
		<edge from-layer="1786" from-port="1" to-layer="1788" to-port="0"/>
		<edge from-layer="1787" from-port="0" to-layer="1788" to-port="1"/>
		<edge from-layer="1788" from-port="2" to-layer="1790" to-port="0"/>
		<edge from-layer="1789" from-port="0" to-layer="1790" to-port="1"/>
		<edge from-layer="1790" from-port="2" to-layer="1791" to-port="0"/>
		<edge from-layer="1791" from-port="2" to-layer="1792" to-port="0"/>
		<edge from-layer="1792" from-port="1" to-layer="1802" to-port="1"/>
		<edge from-layer="1792" from-port="1" to-layer="1794" to-port="0"/>
		<edge from-layer="1793" from-port="0" to-layer="1794" to-port="1"/>
		<edge from-layer="1794" from-port="2" to-layer="1796" to-port="0"/>
		<edge from-layer="1795" from-port="0" to-layer="1796" to-port="1"/>
		<edge from-layer="1796" from-port="2" to-layer="1797" to-port="0"/>
		<edge from-layer="1797" from-port="1" to-layer="1799" to-port="0"/>
		<edge from-layer="1798" from-port="0" to-layer="1799" to-port="1"/>
		<edge from-layer="1799" from-port="2" to-layer="1801" to-port="0"/>
		<edge from-layer="1800" from-port="0" to-layer="1801" to-port="1"/>
		<edge from-layer="1801" from-port="2" to-layer="1802" to-port="0"/>
		<edge from-layer="1802" from-port="2" to-layer="1803" to-port="0"/>
		<edge from-layer="1803" from-port="1" to-layer="1805" to-port="0"/>
		<edge from-layer="1804" from-port="0" to-layer="1805" to-port="1"/>
		<edge from-layer="1805" from-port="2" to-layer="1980" to-port="0"/>
		<edge from-layer="1806" from-port="0" to-layer="1807" to-port="1"/>
		<edge from-layer="1807" from-port="2" to-layer="1809" to-port="0"/>
		<edge from-layer="1808" from-port="0" to-layer="1809" to-port="1"/>
		<edge from-layer="1809" from-port="2" to-layer="1810" to-port="0"/>
		<edge from-layer="1810" from-port="2" to-layer="1859" to-port="0"/>
		<edge from-layer="1811" from-port="0" to-layer="1812" to-port="1"/>
		<edge from-layer="1812" from-port="2" to-layer="1814" to-port="0"/>
		<edge from-layer="1813" from-port="0" to-layer="1814" to-port="1"/>
		<edge from-layer="1814" from-port="2" to-layer="1848" to-port="0"/>
		<edge from-layer="1814" from-port="2" to-layer="1815" to-port="0"/>
		<edge from-layer="1814" from-port="2" to-layer="1830" to-port="0"/>
		<edge from-layer="1814" from-port="2" to-layer="1858" to-port="0"/>
		<edge from-layer="1814" from-port="2" to-layer="1820" to-port="0"/>
		<edge from-layer="1815" from-port="1" to-layer="1819" to-port="0"/>
		<edge from-layer="1816" from-port="0" to-layer="1819" to-port="1"/>
		<edge from-layer="1817" from-port="0" to-layer="1819" to-port="2"/>
		<edge from-layer="1818" from-port="0" to-layer="1819" to-port="3"/>
		<edge from-layer="1819" from-port="4" to-layer="1842" to-port="0"/>
		<edge from-layer="1820" from-port="1" to-layer="1823" to-port="0"/>
		<edge from-layer="1821" from-port="0" to-layer="1823" to-port="1"/>
		<edge from-layer="1822" from-port="0" to-layer="1823" to-port="2"/>
		<edge from-layer="1823" from-port="3" to-layer="1824" to-port="0"/>
		<edge from-layer="1824" from-port="1" to-layer="1826" to-port="0"/>
		<edge from-layer="1825" from-port="0" to-layer="1826" to-port="1"/>
		<edge from-layer="1826" from-port="2" to-layer="1827" to-port="0"/>
		<edge from-layer="1827" from-port="1" to-layer="1829" to-port="0"/>
		<edge from-layer="1828" from-port="0" to-layer="1829" to-port="1"/>
		<edge from-layer="1829" from-port="2" to-layer="1840" to-port="0"/>
		<edge from-layer="1830" from-port="1" to-layer="1833" to-port="0"/>
		<edge from-layer="1831" from-port="0" to-layer="1833" to-port="1"/>
		<edge from-layer="1832" from-port="0" to-layer="1833" to-port="2"/>
		<edge from-layer="1833" from-port="3" to-layer="1834" to-port="0"/>
		<edge from-layer="1834" from-port="1" to-layer="1836" to-port="0"/>
		<edge from-layer="1835" from-port="0" to-layer="1836" to-port="1"/>
		<edge from-layer="1836" from-port="2" to-layer="1837" to-port="0"/>
		<edge from-layer="1837" from-port="1" to-layer="1839" to-port="0"/>
		<edge from-layer="1838" from-port="0" to-layer="1839" to-port="1"/>
		<edge from-layer="1839" from-port="2" to-layer="1840" to-port="1"/>
		<edge from-layer="1840" from-port="2" to-layer="1841" to-port="0"/>
		<edge from-layer="1841" from-port="1" to-layer="1842" to-port="1"/>
		<edge from-layer="1842" from-port="2" to-layer="1847" to-port="0"/>
		<edge from-layer="1842" from-port="2" to-layer="1846" to-port="0"/>
		<edge from-layer="1843" from-port="0" to-layer="1846" to-port="1"/>
		<edge from-layer="1844" from-port="0" to-layer="1846" to-port="2"/>
		<edge from-layer="1845" from-port="0" to-layer="1846" to-port="3"/>
		<edge from-layer="1846" from-port="4" to-layer="1858" to-port="1"/>
		<edge from-layer="1847" from-port="1" to-layer="1850" to-port="0"/>
		<edge from-layer="1848" from-port="1" to-layer="1849" to-port="0"/>
		<edge from-layer="1849" from-port="1" to-layer="1850" to-port="1"/>
		<edge from-layer="1850" from-port="2" to-layer="1852" to-port="0"/>
		<edge from-layer="1851" from-port="0" to-layer="1852" to-port="1"/>
		<edge from-layer="1852" from-port="2" to-layer="1856" to-port="0"/>
		<edge from-layer="1853" from-port="0" to-layer="1856" to-port="1"/>
		<edge from-layer="1854" from-port="0" to-layer="1856" to-port="2"/>
		<edge from-layer="1855" from-port="0" to-layer="1856" to-port="3"/>
		<edge from-layer="1856" from-port="4" to-layer="1858" to-port="2"/>
		<edge from-layer="1857" from-port="0" to-layer="1858" to-port="3"/>
		<edge from-layer="1858" from-port="4" to-layer="1859" to-port="1"/>
		<edge from-layer="1859" from-port="2" to-layer="1908" to-port="0"/>
		<edge from-layer="1860" from-port="0" to-layer="1861" to-port="1"/>
		<edge from-layer="1861" from-port="2" to-layer="1863" to-port="0"/>
		<edge from-layer="1862" from-port="0" to-layer="1863" to-port="1"/>
		<edge from-layer="1863" from-port="2" to-layer="1864" to-port="0"/>
		<edge from-layer="1863" from-port="2" to-layer="1897" to-port="0"/>
		<edge from-layer="1863" from-port="2" to-layer="1907" to-port="0"/>
		<edge from-layer="1863" from-port="2" to-layer="1869" to-port="0"/>
		<edge from-layer="1863" from-port="2" to-layer="1879" to-port="0"/>
		<edge from-layer="1864" from-port="1" to-layer="1868" to-port="0"/>
		<edge from-layer="1865" from-port="0" to-layer="1868" to-port="1"/>
		<edge from-layer="1866" from-port="0" to-layer="1868" to-port="2"/>
		<edge from-layer="1867" from-port="0" to-layer="1868" to-port="3"/>
		<edge from-layer="1868" from-port="4" to-layer="1891" to-port="0"/>
		<edge from-layer="1869" from-port="1" to-layer="1872" to-port="0"/>
		<edge from-layer="1870" from-port="0" to-layer="1872" to-port="1"/>
		<edge from-layer="1871" from-port="0" to-layer="1872" to-port="2"/>
		<edge from-layer="1872" from-port="3" to-layer="1873" to-port="0"/>
		<edge from-layer="1873" from-port="1" to-layer="1875" to-port="0"/>
		<edge from-layer="1874" from-port="0" to-layer="1875" to-port="1"/>
		<edge from-layer="1875" from-port="2" to-layer="1876" to-port="0"/>
		<edge from-layer="1876" from-port="1" to-layer="1878" to-port="0"/>
		<edge from-layer="1877" from-port="0" to-layer="1878" to-port="1"/>
		<edge from-layer="1878" from-port="2" to-layer="1889" to-port="0"/>
		<edge from-layer="1879" from-port="1" to-layer="1882" to-port="0"/>
		<edge from-layer="1880" from-port="0" to-layer="1882" to-port="1"/>
		<edge from-layer="1881" from-port="0" to-layer="1882" to-port="2"/>
		<edge from-layer="1882" from-port="3" to-layer="1883" to-port="0"/>
		<edge from-layer="1883" from-port="1" to-layer="1885" to-port="0"/>
		<edge from-layer="1884" from-port="0" to-layer="1885" to-port="1"/>
		<edge from-layer="1885" from-port="2" to-layer="1886" to-port="0"/>
		<edge from-layer="1886" from-port="1" to-layer="1888" to-port="0"/>
		<edge from-layer="1887" from-port="0" to-layer="1888" to-port="1"/>
		<edge from-layer="1888" from-port="2" to-layer="1889" to-port="1"/>
		<edge from-layer="1889" from-port="2" to-layer="1890" to-port="0"/>
		<edge from-layer="1890" from-port="1" to-layer="1891" to-port="1"/>
		<edge from-layer="1891" from-port="2" to-layer="1895" to-port="0"/>
		<edge from-layer="1891" from-port="2" to-layer="1896" to-port="0"/>
		<edge from-layer="1892" from-port="0" to-layer="1895" to-port="1"/>
		<edge from-layer="1893" from-port="0" to-layer="1895" to-port="2"/>
		<edge from-layer="1894" from-port="0" to-layer="1895" to-port="3"/>
		<edge from-layer="1895" from-port="4" to-layer="1907" to-port="1"/>
		<edge from-layer="1896" from-port="1" to-layer="1899" to-port="0"/>
		<edge from-layer="1897" from-port="1" to-layer="1898" to-port="0"/>
		<edge from-layer="1898" from-port="1" to-layer="1899" to-port="1"/>
		<edge from-layer="1899" from-port="2" to-layer="1901" to-port="0"/>
		<edge from-layer="1900" from-port="0" to-layer="1901" to-port="1"/>
		<edge from-layer="1901" from-port="2" to-layer="1905" to-port="0"/>
		<edge from-layer="1902" from-port="0" to-layer="1905" to-port="1"/>
		<edge from-layer="1903" from-port="0" to-layer="1905" to-port="2"/>
		<edge from-layer="1904" from-port="0" to-layer="1905" to-port="3"/>
		<edge from-layer="1905" from-port="4" to-layer="1907" to-port="2"/>
		<edge from-layer="1906" from-port="0" to-layer="1907" to-port="3"/>
		<edge from-layer="1907" from-port="4" to-layer="1908" to-port="1"/>
		<edge from-layer="1908" from-port="2" to-layer="1909" to-port="0"/>
		<edge from-layer="1909" from-port="1" to-layer="1919" to-port="1"/>
		<edge from-layer="1909" from-port="1" to-layer="1911" to-port="0"/>
		<edge from-layer="1910" from-port="0" to-layer="1911" to-port="1"/>
		<edge from-layer="1911" from-port="2" to-layer="1913" to-port="0"/>
		<edge from-layer="1912" from-port="0" to-layer="1913" to-port="1"/>
		<edge from-layer="1913" from-port="2" to-layer="1914" to-port="0"/>
		<edge from-layer="1914" from-port="1" to-layer="1916" to-port="0"/>
		<edge from-layer="1915" from-port="0" to-layer="1916" to-port="1"/>
		<edge from-layer="1916" from-port="2" to-layer="1918" to-port="0"/>
		<edge from-layer="1917" from-port="0" to-layer="1918" to-port="1"/>
		<edge from-layer="1918" from-port="2" to-layer="1919" to-port="0"/>
		<edge from-layer="1919" from-port="2" to-layer="1920" to-port="0"/>
		<edge from-layer="1920" from-port="1" to-layer="1930" to-port="1"/>
		<edge from-layer="1920" from-port="1" to-layer="1922" to-port="0"/>
		<edge from-layer="1921" from-port="0" to-layer="1922" to-port="1"/>
		<edge from-layer="1922" from-port="2" to-layer="1924" to-port="0"/>
		<edge from-layer="1923" from-port="0" to-layer="1924" to-port="1"/>
		<edge from-layer="1924" from-port="2" to-layer="1925" to-port="0"/>
		<edge from-layer="1925" from-port="1" to-layer="1927" to-port="0"/>
		<edge from-layer="1926" from-port="0" to-layer="1927" to-port="1"/>
		<edge from-layer="1927" from-port="2" to-layer="1929" to-port="0"/>
		<edge from-layer="1928" from-port="0" to-layer="1929" to-port="1"/>
		<edge from-layer="1929" from-port="2" to-layer="1930" to-port="0"/>
		<edge from-layer="1930" from-port="2" to-layer="1931" to-port="0"/>
		<edge from-layer="1931" from-port="1" to-layer="1933" to-port="0"/>
		<edge from-layer="1932" from-port="0" to-layer="1933" to-port="1"/>
		<edge from-layer="1933" from-port="2" to-layer="1935" to-port="0"/>
		<edge from-layer="1934" from-port="0" to-layer="1935" to-port="1"/>
		<edge from-layer="1935" from-port="2" to-layer="1979" to-port="0"/>
		<edge from-layer="1935" from-port="2" to-layer="1941" to-port="0"/>
		<edge from-layer="1935" from-port="2" to-layer="1936" to-port="0"/>
		<edge from-layer="1935" from-port="2" to-layer="1969" to-port="0"/>
		<edge from-layer="1935" from-port="2" to-layer="1951" to-port="0"/>
		<edge from-layer="1936" from-port="1" to-layer="1940" to-port="0"/>
		<edge from-layer="1937" from-port="0" to-layer="1940" to-port="1"/>
		<edge from-layer="1938" from-port="0" to-layer="1940" to-port="2"/>
		<edge from-layer="1939" from-port="0" to-layer="1940" to-port="3"/>
		<edge from-layer="1940" from-port="4" to-layer="1963" to-port="0"/>
		<edge from-layer="1941" from-port="1" to-layer="1944" to-port="0"/>
		<edge from-layer="1942" from-port="0" to-layer="1944" to-port="1"/>
		<edge from-layer="1943" from-port="0" to-layer="1944" to-port="2"/>
		<edge from-layer="1944" from-port="3" to-layer="1945" to-port="0"/>
		<edge from-layer="1945" from-port="1" to-layer="1947" to-port="0"/>
		<edge from-layer="1946" from-port="0" to-layer="1947" to-port="1"/>
		<edge from-layer="1947" from-port="2" to-layer="1948" to-port="0"/>
		<edge from-layer="1948" from-port="1" to-layer="1950" to-port="0"/>
		<edge from-layer="1949" from-port="0" to-layer="1950" to-port="1"/>
		<edge from-layer="1950" from-port="2" to-layer="1961" to-port="0"/>
		<edge from-layer="1951" from-port="1" to-layer="1954" to-port="0"/>
		<edge from-layer="1952" from-port="0" to-layer="1954" to-port="1"/>
		<edge from-layer="1953" from-port="0" to-layer="1954" to-port="2"/>
		<edge from-layer="1954" from-port="3" to-layer="1955" to-port="0"/>
		<edge from-layer="1955" from-port="1" to-layer="1957" to-port="0"/>
		<edge from-layer="1956" from-port="0" to-layer="1957" to-port="1"/>
		<edge from-layer="1957" from-port="2" to-layer="1958" to-port="0"/>
		<edge from-layer="1958" from-port="1" to-layer="1960" to-port="0"/>
		<edge from-layer="1959" from-port="0" to-layer="1960" to-port="1"/>
		<edge from-layer="1960" from-port="2" to-layer="1961" to-port="1"/>
		<edge from-layer="1961" from-port="2" to-layer="1962" to-port="0"/>
		<edge from-layer="1962" from-port="1" to-layer="1963" to-port="1"/>
		<edge from-layer="1963" from-port="2" to-layer="1967" to-port="0"/>
		<edge from-layer="1963" from-port="2" to-layer="1968" to-port="0"/>
		<edge from-layer="1964" from-port="0" to-layer="1967" to-port="1"/>
		<edge from-layer="1965" from-port="0" to-layer="1967" to-port="2"/>
		<edge from-layer="1966" from-port="0" to-layer="1967" to-port="3"/>
		<edge from-layer="1967" from-port="4" to-layer="1979" to-port="1"/>
		<edge from-layer="1968" from-port="1" to-layer="1971" to-port="0"/>
		<edge from-layer="1969" from-port="1" to-layer="1970" to-port="0"/>
		<edge from-layer="1970" from-port="1" to-layer="1971" to-port="1"/>
		<edge from-layer="1971" from-port="2" to-layer="1973" to-port="0"/>
		<edge from-layer="1972" from-port="0" to-layer="1973" to-port="1"/>
		<edge from-layer="1973" from-port="2" to-layer="1977" to-port="0"/>
		<edge from-layer="1974" from-port="0" to-layer="1977" to-port="1"/>
		<edge from-layer="1975" from-port="0" to-layer="1977" to-port="2"/>
		<edge from-layer="1976" from-port="0" to-layer="1977" to-port="3"/>
		<edge from-layer="1977" from-port="4" to-layer="1979" to-port="2"/>
		<edge from-layer="1978" from-port="0" to-layer="1979" to-port="3"/>
		<edge from-layer="1979" from-port="4" to-layer="1980" to-port="1"/>
		<edge from-layer="1980" from-port="2" to-layer="2116" to-port="0"/>
		<edge from-layer="1981" from-port="0" to-layer="1982" to-port="1"/>
		<edge from-layer="1982" from-port="2" to-layer="1984" to-port="0"/>
		<edge from-layer="1983" from-port="0" to-layer="1984" to-port="1"/>
		<edge from-layer="1984" from-port="2" to-layer="1985" to-port="0"/>
		<edge from-layer="1985" from-port="1" to-layer="1987" to-port="0"/>
		<edge from-layer="1986" from-port="0" to-layer="1987" to-port="1"/>
		<edge from-layer="1987" from-port="2" to-layer="1989" to-port="0"/>
		<edge from-layer="1988" from-port="0" to-layer="1989" to-port="1"/>
		<edge from-layer="1989" from-port="2" to-layer="1994" to-port="0"/>
		<edge from-layer="1990" from-port="0" to-layer="1991" to-port="1"/>
		<edge from-layer="1991" from-port="2" to-layer="1993" to-port="0"/>
		<edge from-layer="1992" from-port="0" to-layer="1993" to-port="1"/>
		<edge from-layer="1993" from-port="2" to-layer="1994" to-port="1"/>
		<edge from-layer="1994" from-port="2" to-layer="1995" to-port="0"/>
		<edge from-layer="1995" from-port="2" to-layer="2044" to-port="0"/>
		<edge from-layer="1996" from-port="0" to-layer="1997" to-port="1"/>
		<edge from-layer="1997" from-port="2" to-layer="1999" to-port="0"/>
		<edge from-layer="1998" from-port="0" to-layer="1999" to-port="1"/>
		<edge from-layer="1999" from-port="2" to-layer="2000" to-port="0"/>
		<edge from-layer="1999" from-port="2" to-layer="2005" to-port="0"/>
		<edge from-layer="1999" from-port="2" to-layer="2043" to-port="0"/>
		<edge from-layer="1999" from-port="2" to-layer="2015" to-port="0"/>
		<edge from-layer="1999" from-port="2" to-layer="2033" to-port="0"/>
		<edge from-layer="2000" from-port="1" to-layer="2004" to-port="0"/>
		<edge from-layer="2001" from-port="0" to-layer="2004" to-port="1"/>
		<edge from-layer="2002" from-port="0" to-layer="2004" to-port="2"/>
		<edge from-layer="2003" from-port="0" to-layer="2004" to-port="3"/>
		<edge from-layer="2004" from-port="4" to-layer="2027" to-port="0"/>
		<edge from-layer="2005" from-port="1" to-layer="2008" to-port="0"/>
		<edge from-layer="2006" from-port="0" to-layer="2008" to-port="1"/>
		<edge from-layer="2007" from-port="0" to-layer="2008" to-port="2"/>
		<edge from-layer="2008" from-port="3" to-layer="2009" to-port="0"/>
		<edge from-layer="2009" from-port="1" to-layer="2011" to-port="0"/>
		<edge from-layer="2010" from-port="0" to-layer="2011" to-port="1"/>
		<edge from-layer="2011" from-port="2" to-layer="2012" to-port="0"/>
		<edge from-layer="2012" from-port="1" to-layer="2014" to-port="0"/>
		<edge from-layer="2013" from-port="0" to-layer="2014" to-port="1"/>
		<edge from-layer="2014" from-port="2" to-layer="2025" to-port="0"/>
		<edge from-layer="2015" from-port="1" to-layer="2018" to-port="0"/>
		<edge from-layer="2016" from-port="0" to-layer="2018" to-port="1"/>
		<edge from-layer="2017" from-port="0" to-layer="2018" to-port="2"/>
		<edge from-layer="2018" from-port="3" to-layer="2019" to-port="0"/>
		<edge from-layer="2019" from-port="1" to-layer="2021" to-port="0"/>
		<edge from-layer="2020" from-port="0" to-layer="2021" to-port="1"/>
		<edge from-layer="2021" from-port="2" to-layer="2022" to-port="0"/>
		<edge from-layer="2022" from-port="1" to-layer="2024" to-port="0"/>
		<edge from-layer="2023" from-port="0" to-layer="2024" to-port="1"/>
		<edge from-layer="2024" from-port="2" to-layer="2025" to-port="1"/>
		<edge from-layer="2025" from-port="2" to-layer="2026" to-port="0"/>
		<edge from-layer="2026" from-port="1" to-layer="2027" to-port="1"/>
		<edge from-layer="2027" from-port="2" to-layer="2031" to-port="0"/>
		<edge from-layer="2027" from-port="2" to-layer="2032" to-port="0"/>
		<edge from-layer="2028" from-port="0" to-layer="2031" to-port="1"/>
		<edge from-layer="2029" from-port="0" to-layer="2031" to-port="2"/>
		<edge from-layer="2030" from-port="0" to-layer="2031" to-port="3"/>
		<edge from-layer="2031" from-port="4" to-layer="2043" to-port="1"/>
		<edge from-layer="2032" from-port="1" to-layer="2035" to-port="0"/>
		<edge from-layer="2033" from-port="1" to-layer="2034" to-port="0"/>
		<edge from-layer="2034" from-port="1" to-layer="2035" to-port="1"/>
		<edge from-layer="2035" from-port="2" to-layer="2037" to-port="0"/>
		<edge from-layer="2036" from-port="0" to-layer="2037" to-port="1"/>
		<edge from-layer="2037" from-port="2" to-layer="2041" to-port="0"/>
		<edge from-layer="2038" from-port="0" to-layer="2041" to-port="1"/>
		<edge from-layer="2039" from-port="0" to-layer="2041" to-port="2"/>
		<edge from-layer="2040" from-port="0" to-layer="2041" to-port="3"/>
		<edge from-layer="2041" from-port="4" to-layer="2043" to-port="2"/>
		<edge from-layer="2042" from-port="0" to-layer="2043" to-port="3"/>
		<edge from-layer="2043" from-port="4" to-layer="2044" to-port="1"/>
		<edge from-layer="2044" from-port="2" to-layer="2045" to-port="0"/>
		<edge from-layer="2045" from-port="1" to-layer="2047" to-port="0"/>
		<edge from-layer="2045" from-port="1" to-layer="2055" to-port="1"/>
		<edge from-layer="2046" from-port="0" to-layer="2047" to-port="1"/>
		<edge from-layer="2047" from-port="2" to-layer="2049" to-port="0"/>
		<edge from-layer="2048" from-port="0" to-layer="2049" to-port="1"/>
		<edge from-layer="2049" from-port="2" to-layer="2050" to-port="0"/>
		<edge from-layer="2050" from-port="1" to-layer="2052" to-port="0"/>
		<edge from-layer="2051" from-port="0" to-layer="2052" to-port="1"/>
		<edge from-layer="2052" from-port="2" to-layer="2054" to-port="0"/>
		<edge from-layer="2053" from-port="0" to-layer="2054" to-port="1"/>
		<edge from-layer="2054" from-port="2" to-layer="2055" to-port="0"/>
		<edge from-layer="2055" from-port="2" to-layer="2056" to-port="0"/>
		<edge from-layer="2056" from-port="1" to-layer="2058" to-port="0"/>
		<edge from-layer="2056" from-port="1" to-layer="2066" to-port="1"/>
		<edge from-layer="2057" from-port="0" to-layer="2058" to-port="1"/>
		<edge from-layer="2058" from-port="2" to-layer="2060" to-port="0"/>
		<edge from-layer="2059" from-port="0" to-layer="2060" to-port="1"/>
		<edge from-layer="2060" from-port="2" to-layer="2061" to-port="0"/>
		<edge from-layer="2061" from-port="1" to-layer="2063" to-port="0"/>
		<edge from-layer="2062" from-port="0" to-layer="2063" to-port="1"/>
		<edge from-layer="2063" from-port="2" to-layer="2065" to-port="0"/>
		<edge from-layer="2064" from-port="0" to-layer="2065" to-port="1"/>
		<edge from-layer="2065" from-port="2" to-layer="2066" to-port="0"/>
		<edge from-layer="2066" from-port="2" to-layer="2067" to-port="0"/>
		<edge from-layer="2067" from-port="1" to-layer="2069" to-port="0"/>
		<edge from-layer="2068" from-port="0" to-layer="2069" to-port="1"/>
		<edge from-layer="2069" from-port="2" to-layer="2071" to-port="0"/>
		<edge from-layer="2070" from-port="0" to-layer="2071" to-port="1"/>
		<edge from-layer="2071" from-port="2" to-layer="2115" to-port="0"/>
		<edge from-layer="2071" from-port="2" to-layer="2105" to-port="0"/>
		<edge from-layer="2071" from-port="2" to-layer="2087" to-port="0"/>
		<edge from-layer="2071" from-port="2" to-layer="2077" to-port="0"/>
		<edge from-layer="2071" from-port="2" to-layer="2072" to-port="0"/>
		<edge from-layer="2072" from-port="1" to-layer="2076" to-port="0"/>
		<edge from-layer="2073" from-port="0" to-layer="2076" to-port="1"/>
		<edge from-layer="2074" from-port="0" to-layer="2076" to-port="2"/>
		<edge from-layer="2075" from-port="0" to-layer="2076" to-port="3"/>
		<edge from-layer="2076" from-port="4" to-layer="2099" to-port="0"/>
		<edge from-layer="2077" from-port="1" to-layer="2080" to-port="0"/>
		<edge from-layer="2078" from-port="0" to-layer="2080" to-port="1"/>
		<edge from-layer="2079" from-port="0" to-layer="2080" to-port="2"/>
		<edge from-layer="2080" from-port="3" to-layer="2081" to-port="0"/>
		<edge from-layer="2081" from-port="1" to-layer="2083" to-port="0"/>
		<edge from-layer="2082" from-port="0" to-layer="2083" to-port="1"/>
		<edge from-layer="2083" from-port="2" to-layer="2084" to-port="0"/>
		<edge from-layer="2084" from-port="1" to-layer="2086" to-port="0"/>
		<edge from-layer="2085" from-port="0" to-layer="2086" to-port="1"/>
		<edge from-layer="2086" from-port="2" to-layer="2097" to-port="0"/>
		<edge from-layer="2087" from-port="1" to-layer="2090" to-port="0"/>
		<edge from-layer="2088" from-port="0" to-layer="2090" to-port="1"/>
		<edge from-layer="2089" from-port="0" to-layer="2090" to-port="2"/>
		<edge from-layer="2090" from-port="3" to-layer="2091" to-port="0"/>
		<edge from-layer="2091" from-port="1" to-layer="2093" to-port="0"/>
		<edge from-layer="2092" from-port="0" to-layer="2093" to-port="1"/>
		<edge from-layer="2093" from-port="2" to-layer="2094" to-port="0"/>
		<edge from-layer="2094" from-port="1" to-layer="2096" to-port="0"/>
		<edge from-layer="2095" from-port="0" to-layer="2096" to-port="1"/>
		<edge from-layer="2096" from-port="2" to-layer="2097" to-port="1"/>
		<edge from-layer="2097" from-port="2" to-layer="2098" to-port="0"/>
		<edge from-layer="2098" from-port="1" to-layer="2099" to-port="1"/>
		<edge from-layer="2099" from-port="2" to-layer="2104" to-port="0"/>
		<edge from-layer="2099" from-port="2" to-layer="2103" to-port="0"/>
		<edge from-layer="2100" from-port="0" to-layer="2103" to-port="1"/>
		<edge from-layer="2101" from-port="0" to-layer="2103" to-port="2"/>
		<edge from-layer="2102" from-port="0" to-layer="2103" to-port="3"/>
		<edge from-layer="2103" from-port="4" to-layer="2115" to-port="1"/>
		<edge from-layer="2104" from-port="1" to-layer="2107" to-port="0"/>
		<edge from-layer="2105" from-port="1" to-layer="2106" to-port="0"/>
		<edge from-layer="2106" from-port="1" to-layer="2107" to-port="1"/>
		<edge from-layer="2107" from-port="2" to-layer="2109" to-port="0"/>
		<edge from-layer="2108" from-port="0" to-layer="2109" to-port="1"/>
		<edge from-layer="2109" from-port="2" to-layer="2113" to-port="0"/>
		<edge from-layer="2110" from-port="0" to-layer="2113" to-port="1"/>
		<edge from-layer="2111" from-port="0" to-layer="2113" to-port="2"/>
		<edge from-layer="2112" from-port="0" to-layer="2113" to-port="3"/>
		<edge from-layer="2113" from-port="4" to-layer="2115" to-port="2"/>
		<edge from-layer="2114" from-port="0" to-layer="2115" to-port="3"/>
		<edge from-layer="2115" from-port="4" to-layer="2116" to-port="1"/>
		<edge from-layer="2116" from-port="2" to-layer="2218" to-port="0"/>
		<edge from-layer="2117" from-port="0" to-layer="2118" to-port="1"/>
		<edge from-layer="2118" from-port="2" to-layer="2120" to-port="0"/>
		<edge from-layer="2119" from-port="0" to-layer="2120" to-port="1"/>
		<edge from-layer="2120" from-port="2" to-layer="2121" to-port="0"/>
		<edge from-layer="2121" from-port="1" to-layer="2123" to-port="0"/>
		<edge from-layer="2122" from-port="0" to-layer="2123" to-port="1"/>
		<edge from-layer="2123" from-port="2" to-layer="2125" to-port="0"/>
		<edge from-layer="2124" from-port="0" to-layer="2125" to-port="1"/>
		<edge from-layer="2125" from-port="2" to-layer="2126" to-port="0"/>
		<edge from-layer="2126" from-port="1" to-layer="2128" to-port="0"/>
		<edge from-layer="2127" from-port="0" to-layer="2128" to-port="1"/>
		<edge from-layer="2128" from-port="2" to-layer="2130" to-port="0"/>
		<edge from-layer="2129" from-port="0" to-layer="2130" to-port="1"/>
		<edge from-layer="2130" from-port="2" to-layer="2140" to-port="0"/>
		<edge from-layer="2131" from-port="0" to-layer="2132" to-port="1"/>
		<edge from-layer="2132" from-port="2" to-layer="2134" to-port="0"/>
		<edge from-layer="2133" from-port="0" to-layer="2134" to-port="1"/>
		<edge from-layer="2134" from-port="2" to-layer="2135" to-port="0"/>
		<edge from-layer="2135" from-port="1" to-layer="2137" to-port="0"/>
		<edge from-layer="2136" from-port="0" to-layer="2137" to-port="1"/>
		<edge from-layer="2137" from-port="2" to-layer="2139" to-port="0"/>
		<edge from-layer="2138" from-port="0" to-layer="2139" to-port="1"/>
		<edge from-layer="2139" from-port="2" to-layer="2140" to-port="1"/>
		<edge from-layer="2140" from-port="2" to-layer="2145" to-port="0"/>
		<edge from-layer="2141" from-port="0" to-layer="2142" to-port="1"/>
		<edge from-layer="2142" from-port="2" to-layer="2144" to-port="0"/>
		<edge from-layer="2143" from-port="0" to-layer="2144" to-port="1"/>
		<edge from-layer="2144" from-port="2" to-layer="2145" to-port="1"/>
		<edge from-layer="2145" from-port="2" to-layer="2146" to-port="0"/>
		<edge from-layer="2146" from-port="2" to-layer="2147" to-port="0"/>
		<edge from-layer="2147" from-port="1" to-layer="2157" to-port="1"/>
		<edge from-layer="2147" from-port="1" to-layer="2149" to-port="0"/>
		<edge from-layer="2148" from-port="0" to-layer="2149" to-port="1"/>
		<edge from-layer="2149" from-port="2" to-layer="2151" to-port="0"/>
		<edge from-layer="2150" from-port="0" to-layer="2151" to-port="1"/>
		<edge from-layer="2151" from-port="2" to-layer="2152" to-port="0"/>
		<edge from-layer="2152" from-port="1" to-layer="2154" to-port="0"/>
		<edge from-layer="2153" from-port="0" to-layer="2154" to-port="1"/>
		<edge from-layer="2154" from-port="2" to-layer="2156" to-port="0"/>
		<edge from-layer="2155" from-port="0" to-layer="2156" to-port="1"/>
		<edge from-layer="2156" from-port="2" to-layer="2157" to-port="0"/>
		<edge from-layer="2157" from-port="2" to-layer="2158" to-port="0"/>
		<edge from-layer="2158" from-port="1" to-layer="2160" to-port="0"/>
		<edge from-layer="2158" from-port="1" to-layer="2168" to-port="1"/>
		<edge from-layer="2159" from-port="0" to-layer="2160" to-port="1"/>
		<edge from-layer="2160" from-port="2" to-layer="2162" to-port="0"/>
		<edge from-layer="2161" from-port="0" to-layer="2162" to-port="1"/>
		<edge from-layer="2162" from-port="2" to-layer="2163" to-port="0"/>
		<edge from-layer="2163" from-port="1" to-layer="2165" to-port="0"/>
		<edge from-layer="2164" from-port="0" to-layer="2165" to-port="1"/>
		<edge from-layer="2165" from-port="2" to-layer="2167" to-port="0"/>
		<edge from-layer="2166" from-port="0" to-layer="2167" to-port="1"/>
		<edge from-layer="2167" from-port="2" to-layer="2168" to-port="0"/>
		<edge from-layer="2168" from-port="2" to-layer="2169" to-port="0"/>
		<edge from-layer="2169" from-port="1" to-layer="2171" to-port="0"/>
		<edge from-layer="2170" from-port="0" to-layer="2171" to-port="1"/>
		<edge from-layer="2171" from-port="2" to-layer="2173" to-port="0"/>
		<edge from-layer="2172" from-port="0" to-layer="2173" to-port="1"/>
		<edge from-layer="2173" from-port="2" to-layer="2207" to-port="0"/>
		<edge from-layer="2173" from-port="2" to-layer="2217" to-port="0"/>
		<edge from-layer="2173" from-port="2" to-layer="2189" to-port="0"/>
		<edge from-layer="2173" from-port="2" to-layer="2179" to-port="0"/>
		<edge from-layer="2173" from-port="2" to-layer="2174" to-port="0"/>
		<edge from-layer="2174" from-port="1" to-layer="2178" to-port="0"/>
		<edge from-layer="2175" from-port="0" to-layer="2178" to-port="1"/>
		<edge from-layer="2176" from-port="0" to-layer="2178" to-port="2"/>
		<edge from-layer="2177" from-port="0" to-layer="2178" to-port="3"/>
		<edge from-layer="2178" from-port="4" to-layer="2201" to-port="0"/>
		<edge from-layer="2179" from-port="1" to-layer="2182" to-port="0"/>
		<edge from-layer="2180" from-port="0" to-layer="2182" to-port="1"/>
		<edge from-layer="2181" from-port="0" to-layer="2182" to-port="2"/>
		<edge from-layer="2182" from-port="3" to-layer="2183" to-port="0"/>
		<edge from-layer="2183" from-port="1" to-layer="2185" to-port="0"/>
		<edge from-layer="2184" from-port="0" to-layer="2185" to-port="1"/>
		<edge from-layer="2185" from-port="2" to-layer="2186" to-port="0"/>
		<edge from-layer="2186" from-port="1" to-layer="2188" to-port="0"/>
		<edge from-layer="2187" from-port="0" to-layer="2188" to-port="1"/>
		<edge from-layer="2188" from-port="2" to-layer="2199" to-port="0"/>
		<edge from-layer="2189" from-port="1" to-layer="2192" to-port="0"/>
		<edge from-layer="2190" from-port="0" to-layer="2192" to-port="1"/>
		<edge from-layer="2191" from-port="0" to-layer="2192" to-port="2"/>
		<edge from-layer="2192" from-port="3" to-layer="2193" to-port="0"/>
		<edge from-layer="2193" from-port="1" to-layer="2195" to-port="0"/>
		<edge from-layer="2194" from-port="0" to-layer="2195" to-port="1"/>
		<edge from-layer="2195" from-port="2" to-layer="2196" to-port="0"/>
		<edge from-layer="2196" from-port="1" to-layer="2198" to-port="0"/>
		<edge from-layer="2197" from-port="0" to-layer="2198" to-port="1"/>
		<edge from-layer="2198" from-port="2" to-layer="2199" to-port="1"/>
		<edge from-layer="2199" from-port="2" to-layer="2200" to-port="0"/>
		<edge from-layer="2200" from-port="1" to-layer="2201" to-port="1"/>
		<edge from-layer="2201" from-port="2" to-layer="2205" to-port="0"/>
		<edge from-layer="2201" from-port="2" to-layer="2206" to-port="0"/>
		<edge from-layer="2202" from-port="0" to-layer="2205" to-port="1"/>
		<edge from-layer="2203" from-port="0" to-layer="2205" to-port="2"/>
		<edge from-layer="2204" from-port="0" to-layer="2205" to-port="3"/>
		<edge from-layer="2205" from-port="4" to-layer="2217" to-port="1"/>
		<edge from-layer="2206" from-port="1" to-layer="2209" to-port="0"/>
		<edge from-layer="2207" from-port="1" to-layer="2208" to-port="0"/>
		<edge from-layer="2208" from-port="1" to-layer="2209" to-port="1"/>
		<edge from-layer="2209" from-port="2" to-layer="2211" to-port="0"/>
		<edge from-layer="2210" from-port="0" to-layer="2211" to-port="1"/>
		<edge from-layer="2211" from-port="2" to-layer="2215" to-port="0"/>
		<edge from-layer="2212" from-port="0" to-layer="2215" to-port="1"/>
		<edge from-layer="2213" from-port="0" to-layer="2215" to-port="2"/>
		<edge from-layer="2214" from-port="0" to-layer="2215" to-port="3"/>
		<edge from-layer="2215" from-port="4" to-layer="2217" to-port="2"/>
		<edge from-layer="2216" from-port="0" to-layer="2217" to-port="3"/>
		<edge from-layer="2217" from-port="4" to-layer="2218" to-port="1"/>
		<edge from-layer="2218" from-port="2" to-layer="2219" to-port="0"/>
		<edge from-layer="2219" from-port="1" to-layer="2221" to-port="0"/>
		<edge from-layer="2219" from-port="1" to-layer="2234" to-port="0"/>
		<edge from-layer="2219" from-port="1" to-layer="2230" to-port="0"/>
		<edge from-layer="2220" from-port="0" to-layer="2221" to-port="1"/>
		<edge from-layer="2221" from-port="2" to-layer="2223" to-port="0"/>
		<edge from-layer="2222" from-port="0" to-layer="2223" to-port="1"/>
		<edge from-layer="2223" from-port="2" to-layer="2274" to-port="0"/>
		<edge from-layer="2223" from-port="2" to-layer="2284" to-port="0"/>
		<edge from-layer="2223" from-port="2" to-layer="2233" to-port="1"/>
		<edge from-layer="2223" from-port="2" to-layer="2224" to-port="0"/>
		<edge from-layer="2224" from-port="1" to-layer="2228" to-port="0"/>
		<edge from-layer="2225" from-port="0" to-layer="2228" to-port="1"/>
		<edge from-layer="2226" from-port="0" to-layer="2228" to-port="2"/>
		<edge from-layer="2227" from-port="0" to-layer="2228" to-port="3"/>
		<edge from-layer="2228" from-port="4" to-layer="2268" to-port="0"/>
		<edge from-layer="2229" from-port="0" to-layer="2230" to-port="1"/>
		<edge from-layer="2230" from-port="2" to-layer="2232" to-port="0"/>
		<edge from-layer="2231" from-port="0" to-layer="2232" to-port="1"/>
		<edge from-layer="2232" from-port="2" to-layer="2233" to-port="0"/>
		<edge from-layer="2232" from-port="2" to-layer="2288" to-port="0"/>
		<edge from-layer="2232" from-port="2" to-layer="2304" to-port="0"/>
		<edge from-layer="2232" from-port="2" to-layer="2314" to-port="0"/>
		<edge from-layer="2233" from-port="2" to-layer="2234" to-port="1"/>
		<edge from-layer="2234" from-port="2" to-layer="2236" to-port="0"/>
		<edge from-layer="2235" from-port="0" to-layer="2236" to-port="1"/>
		<edge from-layer="2236" from-port="2" to-layer="2238" to-port="0"/>
		<edge from-layer="2237" from-port="0" to-layer="2238" to-port="1"/>
		<edge from-layer="2238" from-port="2" to-layer="2239" to-port="0"/>
		<edge from-layer="2239" from-port="1" to-layer="2241" to-port="0"/>
		<edge from-layer="2239" from-port="1" to-layer="2249" to-port="1"/>
		<edge from-layer="2240" from-port="0" to-layer="2241" to-port="1"/>
		<edge from-layer="2241" from-port="2" to-layer="2243" to-port="0"/>
		<edge from-layer="2242" from-port="0" to-layer="2243" to-port="1"/>
		<edge from-layer="2243" from-port="2" to-layer="2244" to-port="0"/>
		<edge from-layer="2244" from-port="1" to-layer="2246" to-port="0"/>
		<edge from-layer="2245" from-port="0" to-layer="2246" to-port="1"/>
		<edge from-layer="2246" from-port="2" to-layer="2248" to-port="0"/>
		<edge from-layer="2247" from-port="0" to-layer="2248" to-port="1"/>
		<edge from-layer="2248" from-port="2" to-layer="2249" to-port="0"/>
		<edge from-layer="2249" from-port="2" to-layer="2250" to-port="0"/>
		<edge from-layer="2250" from-port="1" to-layer="2252" to-port="0"/>
		<edge from-layer="2251" from-port="0" to-layer="2252" to-port="1"/>
		<edge from-layer="2252" from-port="2" to-layer="2254" to-port="0"/>
		<edge from-layer="2253" from-port="0" to-layer="2254" to-port="1"/>
		<edge from-layer="2254" from-port="2" to-layer="2261" to-port="0"/>
		<edge from-layer="2254" from-port="2" to-layer="2255" to-port="0"/>
		<edge from-layer="2254" from-port="2" to-layer="2315" to-port="1"/>
		<edge from-layer="2255" from-port="1" to-layer="2258" to-port="0"/>
		<edge from-layer="2256" from-port="0" to-layer="2258" to-port="1"/>
		<edge from-layer="2257" from-port="0" to-layer="2258" to-port="2"/>
		<edge from-layer="2258" from-port="3" to-layer="2260" to-port="0"/>
		<edge from-layer="2258" from-port="3" to-layer="2294" to-port="0"/>
		<edge from-layer="2259" from-port="0" to-layer="2260" to-port="1"/>
		<edge from-layer="2260" from-port="2" to-layer="2267" to-port="0"/>
		<edge from-layer="2261" from-port="1" to-layer="2264" to-port="0"/>
		<edge from-layer="2262" from-port="0" to-layer="2264" to-port="1"/>
		<edge from-layer="2263" from-port="0" to-layer="2264" to-port="2"/>
		<edge from-layer="2264" from-port="3" to-layer="2266" to-port="0"/>
		<edge from-layer="2264" from-port="3" to-layer="2296" to-port="0"/>
		<edge from-layer="2265" from-port="0" to-layer="2266" to-port="1"/>
		<edge from-layer="2266" from-port="2" to-layer="2267" to-port="1"/>
		<edge from-layer="2267" from-port="2" to-layer="2268" to-port="1"/>
		<edge from-layer="2268" from-port="2" to-layer="2272" to-port="0"/>
		<edge from-layer="2268" from-port="2" to-layer="2273" to-port="0"/>
		<edge from-layer="2269" from-port="0" to-layer="2272" to-port="1"/>
		<edge from-layer="2270" from-port="0" to-layer="2272" to-port="2"/>
		<edge from-layer="2271" from-port="0" to-layer="2272" to-port="3"/>
		<edge from-layer="2272" from-port="4" to-layer="2284" to-port="1"/>
		<edge from-layer="2273" from-port="1" to-layer="2276" to-port="0"/>
		<edge from-layer="2274" from-port="1" to-layer="2275" to-port="0"/>
		<edge from-layer="2275" from-port="1" to-layer="2276" to-port="1"/>
		<edge from-layer="2276" from-port="2" to-layer="2278" to-port="0"/>
		<edge from-layer="2277" from-port="0" to-layer="2278" to-port="1"/>
		<edge from-layer="2278" from-port="2" to-layer="2282" to-port="0"/>
		<edge from-layer="2279" from-port="0" to-layer="2282" to-port="1"/>
		<edge from-layer="2280" from-port="0" to-layer="2282" to-port="2"/>
		<edge from-layer="2281" from-port="0" to-layer="2282" to-port="3"/>
		<edge from-layer="2282" from-port="4" to-layer="2284" to-port="2"/>
		<edge from-layer="2283" from-port="0" to-layer="2284" to-port="3"/>
		<edge from-layer="2284" from-port="4" to-layer="2286" to-port="0"/>
		<edge from-layer="2285" from-port="0" to-layer="2286" to-port="1"/>
		<edge from-layer="2286" from-port="2" to-layer="2287" to-port="0"/>
		<edge from-layer="2288" from-port="1" to-layer="2292" to-port="0"/>
		<edge from-layer="2289" from-port="0" to-layer="2292" to-port="1"/>
		<edge from-layer="2290" from-port="0" to-layer="2292" to-port="2"/>
		<edge from-layer="2291" from-port="0" to-layer="2292" to-port="3"/>
		<edge from-layer="2292" from-port="4" to-layer="2298" to-port="0"/>
		<edge from-layer="2293" from-port="0" to-layer="2294" to-port="1"/>
		<edge from-layer="2294" from-port="2" to-layer="2297" to-port="0"/>
		<edge from-layer="2295" from-port="0" to-layer="2296" to-port="1"/>
		<edge from-layer="2296" from-port="2" to-layer="2297" to-port="1"/>
		<edge from-layer="2297" from-port="2" to-layer="2298" to-port="1"/>
		<edge from-layer="2298" from-port="2" to-layer="2302" to-port="0"/>
		<edge from-layer="2298" from-port="2" to-layer="2303" to-port="0"/>
		<edge from-layer="2299" from-port="0" to-layer="2302" to-port="1"/>
		<edge from-layer="2300" from-port="0" to-layer="2302" to-port="2"/>
		<edge from-layer="2301" from-port="0" to-layer="2302" to-port="3"/>
		<edge from-layer="2302" from-port="4" to-layer="2314" to-port="1"/>
		<edge from-layer="2303" from-port="1" to-layer="2306" to-port="0"/>
		<edge from-layer="2304" from-port="1" to-layer="2305" to-port="0"/>
		<edge from-layer="2305" from-port="1" to-layer="2306" to-port="1"/>
		<edge from-layer="2306" from-port="2" to-layer="2308" to-port="0"/>
		<edge from-layer="2307" from-port="0" to-layer="2308" to-port="1"/>
		<edge from-layer="2308" from-port="2" to-layer="2312" to-port="0"/>
		<edge from-layer="2309" from-port="0" to-layer="2312" to-port="1"/>
		<edge from-layer="2310" from-port="0" to-layer="2312" to-port="2"/>
		<edge from-layer="2311" from-port="0" to-layer="2312" to-port="3"/>
		<edge from-layer="2312" from-port="4" to-layer="2314" to-port="2"/>
		<edge from-layer="2313" from-port="0" to-layer="2314" to-port="3"/>
		<edge from-layer="2314" from-port="4" to-layer="2315" to-port="0"/>
		<edge from-layer="2315" from-port="2" to-layer="2317" to-port="0"/>
		<edge from-layer="2316" from-port="0" to-layer="2317" to-port="1"/>
		<edge from-layer="2317" from-port="2" to-layer="2318" to-port="0"/>
		<edge from-layer="2318" from-port="1" to-layer="2319" to-port="0"/>
		<edge from-layer="2318" from-port="1" to-layer="2320" to-port="1"/>
		<edge from-layer="2318" from-port="1" to-layer="2326" to-port="0"/>
		<edge from-layer="2319" from-port="1" to-layer="2320" to-port="0"/>
		<edge from-layer="2320" from-port="2" to-layer="2321" to-port="0"/>
		<edge from-layer="2321" from-port="1" to-layer="2323" to-port="0"/>
		<edge from-layer="2322" from-port="0" to-layer="2323" to-port="1"/>
		<edge from-layer="2323" from-port="2" to-layer="2325" to-port="0"/>
		<edge from-layer="2324" from-port="0" to-layer="2325" to-port="1"/>
		<edge from-layer="2325" from-port="2" to-layer="2326" to-port="1"/>
		<edge from-layer="2326" from-port="2" to-layer="2327" to-port="0"/>
	</edges>
	<meta_data>
		<MO_version value="2021.4.0-3827-c5b65f2cb1d-releases/2021/4"/>
		<cli_parameters>
			<caffe_parser_path value="DIR"/>
			<data_type value="FP32"/>
			<disable_nhwc_to_nchw value="False"/>
			<disable_omitting_optional value="False"/>
			<disable_resnet_optimization value="False"/>
			<disable_weights_compression value="False"/>
			<enable_concat_optimization value="False"/>
			<enable_flattening_nested_params value="False"/>
			<enable_ssd_gluoncv value="False"/>
			<extensions value="DIR"/>
			<framework value="onnx"/>
			<freeze_placeholder_with_value value="{}"/>
			<generate_deprecated_IR_V7 value="False"/>
			<input value="image"/>
			<input_model value="DIR/human-pose-estimation-0007.onnx"/>
			<input_model_is_text value="False"/>
			<input_shape value="[1,3,448,448]"/>
			<k value="DIR/CustomLayersMapping.xml"/>
			<keep_shape_ops value="True"/>
			<legacy_ir_generation value="False"/>
			<legacy_mxnet_model value="False"/>
			<log_level value="ERROR"/>
			<mean_scale_values value="{'image': {'mean': array([123.675, 116.28 , 103.53 ]), 'scale': array([58.395, 57.12 , 57.375])}}"/>
			<mean_values value="image[123.675,116.28,103.53]"/>
			<model_name value="human-pose-estimation-0007"/>
			<output value="['heatmaps', 'embeddings']"/>
			<output_dir value="DIR"/>
			<placeholder_data_types value="{}"/>
			<placeholder_shapes value="{'image': array([  1,   3, 448, 448])}"/>
			<progress value="False"/>
			<remove_memory value="False"/>
			<remove_output_softmax value="False"/>
			<reverse_input_channels value="True"/>
			<save_params_from_nd value="False"/>
			<scale_values value="image[58.395,57.12,57.375]"/>
			<silent value="False"/>
			<static_shape value="False"/>
			<stream_output value="False"/>
			<transform value=""/>
			<unset unset_cli_parameters="batch, counts, disable_fusing, disable_gfusing, finegrain_fusing, input_checkpoint, input_meta_graph, input_proto, input_symbol, mean_file, mean_file_offsets, move_to_preprocess, nd_prefix_name, pretrained_model_name, saved_model_dir, saved_model_tags, scale, tensorboard_logdir, tensorflow_custom_layer_libraries, tensorflow_custom_operations_config_update, tensorflow_object_detection_api_pipeline_config, tensorflow_use_custom_operations_config, transformations_config"/>
		</cli_parameters>
	</meta_data>
</net>
